model/model.pth (torch, 17216 bytes, 4 tensors)

linear1.weight f4 [256, 11]
000000 ee ba ac bd c1 9d 77 bb bf db d5 bc 36 42 20 3e
       -0.084340915 -0.0037783238 -0.02610576 0.15650257
000010 01 af 5a bd cd 62 d7 bd 9f d8 b6 3e bc 4d c2 3d
       -0.053389553 -0.10516892 0.35712144 0.09487483
000020 e8 6c 2b bb bc 01 89 3e 35 f8 82 be 09 05 10 3e
       -0.0026157442 0.26759136 -0.25579992 0.14064421
000030 d1 62 99 bd e3 06 95 3e 37 45 29 be bf 44 93 3e
       -0.07489551 0.29106817 -0.1653031 0.28763387
000040 6a 4d 93 3e 7f 23 08 be d6 24 8a bd 7b 64 93 bd
       0.2877 -0.1329479 -0.06745307 -0.071968995
000050 49 83 59 3c f7 8f aa 3e 64 5e 87 3d 27 01 a6 3e
       0.01327593 0.3331296 0.066098005 0.32422754
000060 0d 5f 82 3d 4d 28 4f 3e fd d4 e8 bd a5 ae 8c be
       0.06365786 0.20230217 -0.11368749 -0.27476993
000070 bd ed 45 be 1f 94 66 bd 1d df 98 bb 70 2b e1 bd
       -0.19328971 -0.056293603 -0.004665269 -0.10994613
000080 1c df f5 bd 16 73 ab be f5 3d 45 be 2e c2 de 39
       -0.12005445 -0.3348624 -0.19261916 0.00042487815
000090 2e 0c d6 3d 07 c3 87 3d c1 cc 9a 3e c8 1f 13 bd
       0.10451542 0.066289954 0.3023434 -0.03591898
0000a0 11 da 86 be 1c ef 3a 3d 32 b1 77 3e 6c be bf bd
       -0.26338246 0.04563819 0.24188688 -0.09362492
0000b0 4d 80 c5 3e 6b ca 65 3e 04 51 0e be 10 84 de 3c
       0.38574448 0.22440498 -0.13898093 0.027162582
0000c0 93 78 c1 be 2c 78 ec 3b b3 24 93 3c 75 9e 83 3e
       -0.37787303 0.007216474 0.017961835 0.2570683
0000d0 47 82 83 3e 93 9a 84 3e fd 11 4e 3c a0 9b 99 3e
       0.2568533 0.2589918 0.012577531 0.30001545
0000e0 a1 3a 8d 3e 88 84 bb bc 29 15 05 3d fc 78 9a 3d
       0.27583793 -0.022890344 0.032490883 0.07542607
0000f0 55 a2 21 be 36 82 79 be 48 67 5c 3c 24 b5 92 3e
       -0.15784581 -0.24366078 0.013452359 0.28653824
000100 52 af 90 3e c3 2b 1a be 2a 69 90 3e bf 2d 31 3e
       0.2825876 -0.15055756 0.28205234 0.17302607
000110 4f 93 94 3e 03 7c 2b 3e 13 ae 5a 3e f5 3c c9 bd
       0.29018638 0.16746525 0.21355467 -0.0982608
000120 8a 16 02 be 8e 7e 48 be ea ba 82 be ac 44 95 be
       -0.1270391 -0.19579527 -0.2553323 -0.29153955
000130 4e c8 a0 bd 9f 99 73 be aa 33 b1 3c 4b db 21 be
       -0.07850705 -0.2378907 0.02163108 -0.1580631
000140 24 47 ad bd 64 15 07 3d d7 e9 04 3e c6 78 59 3e
       -0.084608346 0.032979384 0.12979828 0.21237478
000150 ac be 5c be 64 c5 dd bc 55 18 f9 bd 9f c7 3a be
       -0.2155711 -0.027071662 -0.12162844 -0.18240212
000160 5b 19 8a 3e d3 26 27 3d a6 52 88 3e 6b 2a cb 3d
       0.2697247 0.04080851 0.26625556 0.099202
000170 ea 0c 2f be 0f 45 a0 3e ab db 99 bc 4f a8 21 3e
       -0.1709477 0.31302688 -0.018781504 0.15786861
000180 22 ff 96 be c8 04 8d be e9 e5 5c 3e 94 45 e3 3b
       -0.29491526 -0.2754271 0.21572079 0.0069357846
000190 b1 9c fc 3d a2 56 92 bd c7 93 d0 bc 64 d7 54 be
       0.12334574 -0.0714543 -0.02546109 -0.2078529
0001a0 78 8c a5 bc f7 98 1a 3e 92 3d ae 3e 3a 4b 5a be
       -0.020208582 0.15097414 0.3403135 -0.21317759
0001b0 4e e8 9c bd 8d 2c f9 3d db 0e c1 3e 5c ad b1 bd
       -0.07661496 0.121667005 0.37706646 -0.08675644
0001c0 49 c6 3f be af 9e 83 be 59 bf 22 be 4c 13 e1 bc
       -0.18727984 -0.25707003 -0.15893306 -0.027475022
0001d0 b2 c8 21 3e 5a a9 9a bd 0f 9a 59 3e 58 c3 44 3e
       0.15799215 -0.075518325 0.21250175 0.19215143
0001e0 0a 37 e3 3d 8b a8 9b 3e 97 5b 14 3d 5e 5a 78 be
       0.11094482 0.30402026 0.03622016 -0.24253222
0001f0 d8 9f e7 3d aa 2c 94 3d 60 a6 ae 3d a4 95 2d 3e
       0.11309785 0.072350815 0.08527827 0.16951615
000200 55 32 8f be f3 3c 3b 3e 75 19 91 be 42 6a 01 be
       -0.27968088 0.18284969 -0.28339735 -0.1263819
000210 c2 c0 b4 3d aa ee 0a 3e 7a f6 af 3d c0 96 45 be
       0.08825828 0.13567606 0.085919335 -0.19295788
000220 8b fd 10 be 9f 4d 06 3e 94 0c 13 be 23 79 70 3e
       -0.14159219 0.13115548 -0.14360267 0.2348371
000230 90 56 5d bd f3 b7 41 be a8 10 e4 bd 3e 2f 04 be
       -0.05403763 -0.18917827 -0.111359894 -0.12908646
000240 40 f7 99 3e d5 23 54 3e df 3a ad bd 3f 43 11 3e
       0.3007145 0.20716794 -0.084584944 0.14185809
000250 57 ea 07 3d 64 5d 91 3e 1b 08 92 3d 16 c1 25 be
       0.03318247 0.28391564 0.07130452 -0.16186938
000260 80 32 82 3e 62 c5 54 be 68 d4 85 3e 3e 06 d8 bb
       0.25429153 -0.2077842 0.26138616 -0.006592541
000270 aa 68 99 be 1e 85 d7 3d 5f 3a 93 be 87 21 90 be
       -0.29962665 0.10523437 -0.2875547 -0.2815058
000280 de ff 71 be 57 32 93 be db 41 58 3d ed 54 88 be
       -0.23632762 -0.28749344 0.05279718 -0.26627293
000290 c0 2e 5e be 9d 3b 82 be 39 a8 93 3e 05 9f 61 3e
       -0.21697521 -0.25436106 0.2883928 0.22033317
0002a0 34 b8 8a 3d 60 9e 87 be fc c7 c1 3d 51 bf a7 bd
       0.06773415 -0.26488018 0.09461972 -0.081907876
0002b0 fe 78 6d be 63 8d 0b be ee 5d 98 3e 63 34 2d be
       -0.23190686 -0.13628154 0.29759163 -0.16914515
0002c0 3d 80 90 bd 90 00 c7 3d f7 83 8c be 55 83 9a be
       -0.070557095 0.09716904 -0.2744443 -0.30178323
0002d0 2b 65 3d be 1c 28 49 be 5f ae b5 3e 51 f0 e2 bc
       -0.18495624 -0.19644207 0.35484597 -0.027702482
0002e0 7b 13 9f 3d 3a 01 93 be ea 76 f6 3d 76 80 a2 3e
       0.077673875 -0.28711873 0.120344 0.31738633
0002f0 b3 3a 1e be 84 0b b8 3e f6 e5 9a be 12 65 d5 be
       -0.1545208 0.35946286 -0.3025357 -0.41678673
000300 f4 ed 18 3e 24 78 39 be 65 f0 ce bd d2 b9 49 3e
       0.14934522 -0.18112236 -0.10104445 0.19699791
000310 e2 a7 48 be a3 a1 43 be d0 06 86 be 7f b0 0e 3d
       -0.19595292 -0.19104628 -0.26177073 0.03483629
000320 30 35 6c 3e fd d0 8d be 59 30 82 be b2 69 e6 3d
       0.23067164 -0.27698508 -0.2542751 0.112506285
000330 6f 9b 5e be d2 7e 7e 3d 08 c6 97 3e aa 58 69 be
       -0.2173898 0.062132664 0.29643273 -0.22787729
000340 3d 44 8d bd 17 76 61 3d b6 c9 96 be 3b 34 c4 3d
       -0.06897781 0.05504426 -0.29450768 0.09580275
000350 59 fd 8a be 85 2c 87 be e5 bf 3f 3d a0 39 bd bd
       -0.27146414 -0.26401153 0.046813864 -0.09239507
000360 93 4f e1 3c 9c fc 8c be d7 17 90 be e8 59 85 be
       0.027503764 -0.27536476 -0.28143188 -0.26045156
000370 3e de cc bd 91 bd c4 bd 48 85 91 be b5 2b 4c 3e
       -0.10003327 -0.096064694 -0.28421998 0.19938548
000380 b4 98 99 be 9d 79 bb bd 7f bf 50 bd b7 e2 84 bc
       -0.29999316 -0.09154055 -0.050963875 -0.016221387
000390 86 90 70 bb 8b ae 41 be 24 11 76 be c0 4f 80 3e
       -0.0036707236 -0.18914239 -0.24029976 0.25060844
0003a0 50 d3 05 be b6 a7 71 3e a5 68 b7 3d 60 a9 0a 3e
       -0.1306889 0.23599133 0.08955506 0.13541174
0003b0 37 3e 23 3c ea 67 7c be 82 b7 5f 3e ef 86 05 3d
       0.009963564 -0.24649015 0.21847346 0.032599386
0003c0 9e f6 36 bd 4b e0 08 3e 2e d0 eb bc 7a d5 34 be
       -0.044668786 0.13366811 -0.028785791 -0.1765956
0003d0 bf 1f 98 3e 1a cc 92 be 46 ea 76 be 42 eb a1 3c
       0.2971172 -0.28671342 -0.24112806 0.0197655
0003e0 ee fb 95 3e af 72 8f be 5e fe 9e be 01 0c 88 bc
       0.2929377 -0.28017184 -0.31053442 -0.016607286
0003f0 9b 60 0d 3d c3 5e 57 3e 18 77 b1 3d e2 81 c4 bd
       0.03451596 0.21032242 0.086652935 -0.09595086

linear1.bias f4 [256]
000000 c4 eb e8 bd 28 db 96 bd 63 cc 3d be e7 01 a4 3d
       -0.11373094 -0.073660195 -0.18534999 0.08008175
000010 6f 13 42 bd 2a 60 f8 3c 46 27 06 bd c9 91 7a be
       -0.047381815 0.030319292 -0.032752298 -0.24469675
000020 c2 cc 2c 3e c0 f0 9b 3d 33 4f 8f 3e e9 49 a1 bd
       0.16874984 0.07614279 0.27990112 -0.07875425
000030 38 56 d8 bd 18 05 b3 3d 21 e4 a6 3d 09 2d e2 bd
       -0.1056332 0.08741206 0.08148981 -0.11043746
000040 80 f8 d4 bb 36 9f 4a 3e 7f 3f aa bd 86 8c 26 be
       -0.00649935 0.19787297 -0.08312892 -0.16264543
000050 a0 09 be bc fb 44 07 3e e0 76 5e bd 29 cc 35 3e
       -0.023197949 0.13209908 -0.054312587 0.17753662
000060 4e 55 c6 bd 87 65 07 3e ee 0d a2 be fe c4 9e bd
       -0.09684239 0.13222323 -0.31651253 -0.07752417
000070 fb a5 51 3e 6a f9 c4 3d ff f3 44 bc 49 e3 67 3e
       0.20473473 0.096178845 -0.012021064 0.22645296
000080 01 5d dc 3d 3e cf 2f bb 00 38 58 3e f0 fe 36 be
       0.107599266 -0.0026826407 0.21115112 -0.17870688
000090 7c c1 61 be 7e 5f 1e 3e 74 b9 0e be e7 68 b6 bc
       -0.22046465 0.15466115 -0.13937932 -0.022266818
0000a0 e8 6b dd 3d 06 71 3f be 1c 33 98 3e 99 12 93 3c
       0.10811597 -0.18695459 0.29726493 0.017953204
0000b0 76 fb 90 be db 47 4e be 48 03 fb bd d8 8d 02 3e
       -0.2831685 -0.20144598 -0.12256485 0.12749422
0000c0 6d 41 01 3d 00 32 5b ba ef 0a a1 3d 7c d5 95 3e
       0.031556536 -0.00083616376 0.078634135 0.29264438
0000d0 c8 45 0a be 94 29 82 3d c1 71 1f 3e c1 84 a0 be
       -0.13503182 0.06355587 0.15570737 -0.31351283
0000e0 c7 9a 9a 3e a9 f0 39 3d 97 73 64 bd 64 cc 93 3d
       0.3019621 0.045395527 -0.055774298 0.07216719
0000f0 0f f5 bf 3d 90 26 66 bd 5c 65 a1 bd f4 0b ad 3e
       0.09372913 -0.05618912 -0.07880661 0.33798182
000100 dd 69 92 3e 78 69 1f 3d 7a a2 4e bd fd 5c 28 be
       0.28596392 0.038918942 -0.05044792 -0.16441722
000110 9f fa f9 bd 60 ae 82 ba 35 b3 42 bb cc 1d 51 3e
       -0.12206005 -0.0009970181 -0.0029708866 0.20421523
000120 4d d0 95 3d eb 89 56 3e a4 5e f2 3d 3f b4 3e 3d
       0.07315121 0.20951049 0.118344575 0.046558615
000130 1d e3 5f 3d f3 83 16 be 17 02 b6 3d 54 47 ba 3d
       0.05465995 -0.14698772 0.08887117 0.09095636
000140 b4 83 c4 3a ba f1 7a 3e 83 05 a1 bd 2e cb 40 3d
       0.0014992864 0.24506274 -0.078623794 0.047068767
000150 ec 17 b0 3d c0 3d 4f 3e f2 c2 57 3e f9 5f ba 3e
       0.08598313 0.202384 0.2107046 0.36401346
000160 c1 00 9d 3e 0f 54 d8 bd 5a 2a a7 3e 84 bb ee 3d
       0.30664638 -0.10562908 0.326495 0.116568595
000170 b4 52 c8 3d a8 de 7d 3d 6e c3 de bd ef 8b d4 bd
       0.09781399 0.06197992 -0.10877119 -0.10378253
000180 cb ab 95 3d b0 68 38 3c f1 f2 0a bd bd ac 0a 3e
       0.073081575 0.011255428 -0.033923093 0.13542457
000190 2d 43 98 be 68 28 46 bd 35 8a e8 bd 7c 2c a3 be
       -0.2973875 -0.04837838 -0.11354486 -0.31869876
0001a0 f7 8a 4a be 6b fd 83 bb db fb 54 3e dd d0 88 3d
       -0.19779573 -0.0040280125 0.207992 0.066804625
0001b0 10 1f 97 3e 00 1a 33 bd f5 2d 14 3e 8e 0e 1f bd
       0.29515886 -0.043725967 0.14470656 -0.03883224
0001c0 66 87 4a 3e d3 95 54 be ac 61 4c bd 1c d3 5d 3e
       0.19778213 -0.20760278 -0.049897835 0.21662563
0001d0 c0 9e 52 3e 72 79 97 bd d5 a4 10 3e 76 8b 72 be
       0.20568371 -0.07396211 0.14125378 -0.23686013
0001e0 a8 55 e2 3d b4 b9 75 3d b4 24 97 3e 6e b0 18 3e
       0.11051494 0.059991553 0.2952019 0.14911053
0001f0 b8 af 82 3d 22 3d a0 bd 28 be 8d 3e d7 fc 17 be
       0.06381172 -0.0782416 0.2768414 -0.14842544
000200 c2 86 8a be e5 b1 37 be 0c e6 88 3d 7a e9 80 be
       -0.27055937 -0.17938955 0.06684503 -0.25178128
000210 21 60 7c 3e 0b d4 8c be 43 2c c1 bd c1 7b 8a ba
       0.24646045 -0.27505526 -0.094322704 -0.0010565446
000220 33 32 16 be fc bb ad 3e a6 73 c3 3d dd 75 05 be
       -0.14667587 0.33932483 0.095435426 -0.13033243
000230 f2 19 43 3e 88 02 d3 bd b7 47 c4 bd 69 93 48 be
       0.19052866 -0.10303217 -0.09583991 -0.19587483
000240 b6 e5 5a be 43 c9 7e be cc 2d 49 be 5d 45 ff 3b
       -0.2137669 -0.24881463 -0.19646376 0.007790251
000250 81 bb 15 3c fc 3d 89 be 9e 53 7c be 78 b4 0f 3e
       0.009138943 -0.26805103 -0.24641272 0.14033687
000260 7b d6 fd 3d bc 49 fe bd ad 2a 4f bd e2 03 59 3e
       0.123944245 -0.124164075 -0.05057781 0.21192887
000270 60 6c 85 be 7a 04 82 be c1 58 4a bd 7d 0b 21 3e
       -0.26059246 -0.2539404 -0.04940105 0.15727039
000280 52 e6 af bd 6f 0c 12 3d 26 b1 e3 bc 55 fc 44 3e
       -0.08588852 0.03565639 -0.027794432 0.19236882
000290 dd cd 29 3e 00 56 bf bc 20 58 1f 3d ed 9a 2f 3e
       0.16582437 -0.023356438 0.038902402 0.17148943
0002a0 61 53 8f 3e d4 14 3b bd a9 8e 8e 3d 87 24 21 be
       0.279933 -0.04567416 0.06960804 -0.1573659
0002b0 b4 50 d5 bd 1b ea 30 bc ff 03 3f 3e 07 ab 8e 3d
       -0.104157835 -0.010798003 0.18653868 0.069662146
0002c0 49 d4 53 be 00 9d ad 3c 92 78 bb 3d 33 ac 78 be
       -0.20686449 0.021193027 0.09153856 -0.24284439
0002d0 f8 e9 d0 3e 63 59 52 3e 41 b3 83 be 9a a3 fd bd
       0.40803504 0.20541911 -0.25722697 -0.1238472
0002e0 34 4f 71 be 4f f7 04 be 30 4d b2 3e 0b c0 8f bd
       -0.2356537 -0.12984966 0.34824514 -0.07019051
0002f0 03 6c 81 3e e4 a6 cd 3d a2 36 8f 3e 55 3c 02 be
       0.2527772 0.100415975 0.2797137 -0.12718327
000300 bb 51 41 be 92 24 9a 3e 4c 0d 7d 3d d9 2e 11 3e
       -0.18878834 0.30106026 0.06178026 0.14178027
000310 90 70 94 be b7 ec 04 3c f4 ab 95 be a6 05 2f be
       -0.28992128 0.008113078 -0.29232752 -0.17091998
000320 eb b7 8e 3e 98 f1 0d be 1c 8e ec 3d 82 18 68 3e
       0.27874693 -0.13861692 0.11550543 0.22665599
000330 77 04 a4 be be 0e 3e be fa 56 7b b9 50 4e 90 be
       -0.32034656 -0.18560311 -0.00023969627 -0.28184748
000340 50 29 80 3e 92 3e 15 3e dc f7 eb 3d 2e 0a da 3d
       0.2503152 0.1457465 0.11521885 0.10646473
000350 13 8a 88 be 38 84 f4 bd eb 14 2a 3d 6e 23 98 be
       -0.26667842 -0.11939281 0.041523855 -0.2971453
000360 1b 2b b4 be 7c 92 8e 3e b2 37 d3 bd 9f 33 95 bd
       -0.35189137 0.27846134 -0.103133574 -0.072852366
000370 94 c1 5d be 66 05 93 3e 7a f0 68 bd b3 92 0c be
       -0.21655875 0.28715056 -0.05686996 -0.13727836
000380 1d 2e 8a 3d be c5 e9 3a fa c6 4f 3e 68 b4 82 bd
       0.06747077 0.0017835421 0.20290747 -0.06382066
000390 18 43 06 3e 61 27 fd 3d 94 75 6c 3e 31 d8 18 be
       0.13111532 0.123610266 0.23091727 -0.1492622
0003a0 f2 97 c6 3e da c7 17 be e3 1e 30 bc 24 65 67 3c
       0.387878 -0.14822331 -0.0107495515 0.014123235
0003b0 ee 27 85 be 12 41 22 3d fa 22 1c 3e 4d 93 44 3e
       -0.26007026 0.039612837 0.15247717 0.19196816
0003c0 c5 4d 8a 3e ff 2f d5 3c 40 c8 6a 3e 37 1c 6e 3e
       0.27012458 0.026023863 0.22927952 0.2325295
0003d0 8e 03 7e be 8a 21 81 be 24 a0 58 be 94 6b 50 3e
       -0.24806044 -0.252209 -0.21154839 0.20353538
0003e0 32 70 05 be cb be 65 3e 3f a5 6f 3e 0e 60 c9 bd
       -0.1303108 0.22436063 0.2340288 -0.09832774
0003f0 9f f7 33 bd fc 3c b2 bd 62 29 87 3e e8 8b dd 3d
       -0.04393732 -0.08703038 0.2639876 0.108177006

linear2.weight f4 [3, 256]
000000 05 44 9c bd 21 9d be bd 91 43 c7 3c 76 2a dc 3d
       -0.07630161 -0.09307314 0.02432421 0.10750286
000010 c7 07 11 be 01 f0 0f bd ea 02 0e be ab 00 d0 bc
       -0.14163123 -0.035140995 -0.13868299 -0.025390944
000020 83 de 20 bd 58 3c 74 bd 56 fc d3 bd 6f 90 88 bd
       -0.039274704 -0.05962786 -0.10350864 -0.066681735
000030 73 42 68 be fd 3b c0 bc 2d 02 5a bd c9 db ca 3d
       -0.22681598 -0.023466105 -0.05322473 0.09905202
000040 19 a8 2b 3e e1 bf 61 bd f7 9d a5 3b e0 d7 04 3d
       0.16763343 -0.05511463 0.0050542313 0.032432437
000050 de aa 0d bc 53 e9 fa bd b5 c3 bf 3d 69 5c 94 bd
       -0.008646695 -0.12251534 0.093635 -0.07244188
000060 86 9f 2a bd c0 84 7c bd 84 f0 fd bc ca 88 e0 3d
       -0.04165604 -0.061650038 -0.030998476 0.109635904
000070 5b 81 fb bd 58 06 23 bd 5f 81 c3 3c 9b 5e 36 bd
       -0.12280532 -0.03980097 0.0238654 -0.044523817
000080 4f 5e 0f bd c4 04 5f bd e6 be a7 bd 4b b4 43 bd
       -0.03500205 -0.054447904 -0.08190708 -0.047779363
000090 88 59 94 bc 9f 16 c5 bc 29 12 fe bd 20 3f cf bd
       -0.018109098 -0.024058638 -0.124058075 -0.10119462
0000a0 96 13 89 3c 7e cf ae bd 1c 6c 0b bd 60 4d 66 38
       0.016732972 -0.0853567 -0.034038648 5.4908334e-05
0000b0 c4 09 8f bd 00 26 b6 3c 82 d8 df 3d 58 86 bf 3a
       -0.069842845 0.022234917 0.109299675 0.0014612181
0000c0 5a 3a dc 3c 90 6a bf bc 03 64 0d bd 85 b2 e6 bd
       0.026883293 -0.023366243 -0.034519207 -0.11264519
0000d0 30 c4 99 3d 75 9d 90 3c 51 48 d4 3d ce 00 44 3b
       0.07508123 0.017653206 0.10365356 0.0029907706
0000e0 b8 f1 cc bc c6 cb 08 be 9d 7f c0 3d bf 04 7b bc
       -0.025017604 -0.13358983 0.0939934 -0.015320956
0000f0 48 5a 04 3d 3c f0 e3 bd 1f 38 b5 3d 50 2d 04 be
       0.03231266 -0.111298054 0.08848595 -0.1290791
000100 e4 ac 69 3c 96 0d a2 3d d8 85 b8 bd 7b 50 12 3c
       0.014262412 0.079127476 -0.09009904 0.008930321
000110 95 d2 06 be a3 9e f3 bc 9e 22 27 bc 06 a8 51 bd
       -0.13166268 -0.02973873 -0.0102011245 -0.05118563
000120 44 1d 79 bd 11 71 6f bd 1b 6d b0 bc 03 31 20 bd
       -0.060818925 -0.058457438 -0.0215364 -0.03910924
000130 09 80 19 3e 03 2b e0 bd 0b d7 a9 3d 0b c1 a5 bd
       0.14990248 -0.10945704 0.08292969 -0.08093461
000140 7d 5c ba 3d 54 be 88 bd dc ce 2e be 15 f2 75 bd
       0.09099672 -0.06676927 -0.17071098 -0.06004532
000150 67 9f a3 bd 4e 9a 0d 3d 3a 2b 05 bd e3 a8 a6 bd
       -0.07989388 0.034570985 -0.032511927 -0.08137681
000160 5d 17 0a 3d bd 0e e1 bd e2 dc 49 bd 9b 2a 05 bd
       0.033713687 -0.10989139 -0.049282916 -0.032511335
000170 14 ab be 3c 3b cf 89 bc 6d fd ef 3c c4 bb 7b bd
       0.023274936 -0.016822448 0.029295648 -0.061458364
000180 74 14 f2 bd ea 0b 74 bd e1 ef 0f be 9c 2a b4 bd
       -0.118203074 -0.059581675 -0.1405635 -0.087971896
000190 88 e1 6a 3d 5a 5f c9 bd 11 3e 31 bc 0b 6d 00 bd
       0.05734399 -0.0983264 -0.01081802 -0.03135399
0001a0 e6 35 76 3c 25 5f a9 bd e4 af bf bd e6 03 56 bd
       0.015027499 -0.082701005 -0.0935972 -0.05224981
0001b0 af 44 ba bd c9 90 98 bd c8 21 77 3e 06 b8 96 bd
       -0.090951316 -0.074494906 0.2413398 -0.073593184
0001c0 db eb 21 bc 8e b7 d5 bd 0f fe 7e bd 57 85 26 3d
       -0.0098828925 -0.10435401 -0.062254008 0.040654507
0001d0 17 ba 6e bd aa 63 c3 bc ee b2 ce 3c 32 81 16 bb
       -0.058282938 -0.023851234 0.025231805 -0.002296519
0001e0 91 11 44 bc 68 0a 2a 3d c5 b6 28 bd 79 e5 e0 3b
       -0.011967079 0.04151383 -0.041189928 0.006863293
0001f0 06 9c 54 3e 4f da b8 bd 7c a2 6b bd 58 02 59 3b
       0.20762643 -0.09026014 -0.057528004 0.003311297
000200 1e b4 7a 3d 53 01 c7 bd 32 ca 87 3c 31 30 0d be
       0.06120693 -0.097170494 0.016575906 -0.13787915
000210 c8 81 82 bd da 78 16 3d 77 34 60 bc f8 82 c6 bd
       -0.0637241 0.036736347 -0.013684384 -0.09692949
000220 84 e3 cf 3d 21 c2 ea bd 88 a7 11 3c 31 fe 93 bd
       0.10150817 -0.114628084 0.00889004 -0.072262175
000230 82 fd 25 bd 9d 29 98 bd 87 ba 38 3d de 26 0f be
       -0.040524967 -0.07429812 0.04509976 -0.1397967
000240 7d 6b 2f bc 2a 75 6b 3c c5 78 a6 bd 8a 43 6e bd
       -0.01070678 0.014371196 -0.08128504 -0.05816988
000250 de 33 a9 bd 0c 98 ac 3d cf c9 88 bd 4b dc dc 3c
       -0.08261846 0.08427438 -0.06679117 0.026960513
000260 30 6f e8 bd 1c 16 6f 3d 6a 48 a0 3d 74 43 4f bd
       -0.11349332 0.058370695 0.07826312 -0.050601438
000270 53 b7 c5 3c 74 df 96 3c dd 3a b6 bb 2e e6 b5 bd
       0.024135267 0.018417098 -0.0055612163 -0.08881794
000280 12 c6 21 bd e0 e0 02 be d8 48 ef bd cf e1 be 3c
       -0.039495535 -0.12781096 -0.11683816 0.023301033
000290 d4 58 bf bc 5d 1a bf bd 7f 15 02 be 36 ae 80 bc
       -0.023357786 -0.093312 -0.12703513 -0.01570807
0002a0 8a 6e d5 bd ba f7 23 bd 7b 8e c6 bc 8d 86 9e bd
       -0.10421474 -0.040031172 -0.024237862 -0.07740507
0002b0 df 67 44 3c 0f bf d6 3d f5 18 5a 3d f7 26 a5 bc
       0.011987655 0.1048566 0.053246457 -0.020160181
0002c0 2d 0e 36 3d 00 62 9d bd a1 7f 9b bd 2d a4 77 3b
       0.044447113 -0.07684708 -0.07592703 0.0037787065
0002d0 da 7f 98 bd b7 4e 3e bd 60 1a 07 3e 2a a6 4f bc
       -0.07446261 -0.046461787 0.13193655 -0.012673894
0002e0 0e 22 3d bd d5 aa d9 bd e7 e8 23 bc ae 1f b5 bb
       -0.046175055 -0.10628287 -0.010004259 -0.005527458
0002f0 94 93 c1 bd 7e b5 ba bd 99 cb 13 bc ea 46 a0 bd
       -0.094519764 -0.09116648 -0.009020709 -0.07826026
000300 e7 0f 8f bc 83 fb 19 3d 3e c5 60 bd 44 60 54 3c
       -0.017463638 0.037593376 -0.054875605 0.012962405
000310 39 11 7b 3c ea b4 42 3d cc e4 ad bd 08 33 99 bd
       0.01532393 0.047535814 -0.08490905 -0.074804366
000320 f6 f0 94 bd 48 d9 94 3c ba da 8a 3d 1c e4 04 be
       -0.07272522 0.018170014 0.0678 -0.12977642
000330 a7 94 fc 3c e6 e6 68 bd 72 22 57 3c d0 30 ed 3d
       0.030832602 -0.056860827 0.013130771 0.11581576
000340 37 31 8c bd 0c c0 b6 bd 54 a5 ff bd 60 58 c0 bd
       -0.068453245 -0.08923349 -0.12482706 -0.09391856
000350 d8 73 1a 3d 6a 7c d0 3b 8f ed f0 bd 56 12 2c bc
       0.037708133 0.0063624876 -0.11764061 -0.0105024185
000360 a0 1e b6 bc b3 36 0a 3d 17 84 0c 3b 43 27 73 bc
       -0.0222314 0.03374357 0.0021441036 -0.014840904
000370 09 f4 b0 3d ad e2 a8 bd dd 01 b7 3d 7e 14 ad bb
       0.08640296 -0.0824636 0.08935902 -0.005281984
000380 54 a7 03 3d 8c 89 7c 3d 54 47 ca bd 6a 59 39 3d
       0.032142 0.061654612 -0.09876886 0.045251288
000390 3e 37 7e 3c 92 c6 02 bd 54 8c 26 3d 1f 01 6a bd
       0.0155161 -0.031927653 0.04066117 -0.057129975
0003a0 39 b7 88 bd cd ef 42 bd 08 01 53 3b f8 fd 74 3d
       -0.06675572 -0.047591973 0.003219666 0.059812516
0003b0 4d 57 c1 3d d8 0e 7f bd 6a dd 1e bd 37 07 e6 3d
       0.094404794 -0.062270015 -0.038785376 0.11231845
0003c0 f0 97 b9 b8 54 23 7d 3c 5a fa 21 bd a5 67 32 3b
       -8.849788e-05 0.015450317 -0.039545394 0.0027222421
0003d0 84 57 f8 bd 5e 99 38 bd 98 d6 45 3c 18 bf ad bc
       -0.12126067 -0.045068137 0.012075089 -0.021209285
0003e0 c9 54 b4 3d 06 96 98 bd ef 4b c4 3c 6e 55 8f 3d
       0.08805234 -0.0745049 0.02396199 0.06998716
0003f0 37 d0 b8 bc c1 5e f3 3d 69 29 f4 3c 29 72 2c bd
       -0.022560222 0.11883307 0.029804902 -0.04210106

linear2.bias f4 [3]
000000 15 04 6f 3c ed 06 6e bd 71 d8 5f bd
       0.014588376 -0.058112074 -0.054649774
