model/model.pth (torch, 544424 bytes, 8 tensors)

linear1.weight f4 [256, 11]
0.0954028 -0.17575544 -0.01995235 -0.15178151 0.13956526 0.29112235 0.030796677 0.072635844
-0.2531713 -0.273956 0.08317465 -0.15295005 -0.10747319 -0.21150997 -0.13931862 -0.23198071
0.23554552 0.2485389 0.20690866 0.025343869 -0.042444397 -0.26808771 0.09545456 0.27653316
0.106086336 -0.16042589 -0.27101547 0.13946758 0.20260552 0.25580752 0.00045691314 -0.2559884
-0.014543143 -0.22854947 0.13202931 0.12139191 -0.2817509 0.044173762 -0.0977845 0.10145321
0.24135932 0.2263762 0.1490444 -0.16331732 0.18762022 0.26613155 -0.15027007 -0.037872795
0.07783981 0.14494649 -0.1989478 -0.11895857 -0.14522009 -0.16045205 -0.28849533 -0.2935973
-0.18849708 -0.16461828 -0.02333226 0.12684111 0.28126112 -0.29068014 0.1560957 0.0200827
0.17561366 -0.26257986 0.03809721 -0.049114827 0.11514801 -0.088418834 -0.22513248 0.012122253
0.24016641 -0.06450594 0.13399553 0.15990897 -0.27787828 -0.14062555 0.28890708 -0.11491307
0.27830625 0.24659362 0.04492908 -0.27691633 0.11971004 -0.051792335 -0.15948479 0.15026182
-0.19207175 -0.29687995 0.21470694 -0.07748913 0.20489435 -0.13001756 -0.25999856 -0.1008711
0.10922078 0.24945682 -0.28078502 -0.069538936 -0.23189306 -0.023472428 -0.0908981 -0.3113169
-0.102346145 0.16353971 0.0985305 0.23263735 0.14895037 -0.28719068 0.17559163 0.1448965
-0.20863512 0.0524882 -0.14271268 -0.12334178 -0.110614404 0.29262662 0.036645494 -0.29236048
-0.051727552 0.23165628 0.147151 -0.23121996 0.010916898 -0.29070762 -0.21912862 -0.27362522
-0.27438962 0.05948216 -0.04322679 -0.19842117 -0.02118225 0.2507888 0.17583922 0.3028633
-0.18401295 -0.20729207 -0.16547716 0.05808291 0.072708905 -0.15452401 0.12504667 -0.21161407
-0.11272882 -0.15443109 -0.182636 0.084280975 -0.27575696 -0.18274002 0.08634137 -0.3005979
-0.018402971 -0.02352283 0.16012447 0.068740524 0.010237337 0.28129765 0.17076641 0.021164685
0.03672361 0.046081018 0.020008147 0.19408101 0.20644853 -0.011688877 -0.21283883 -0.2584059
0.014764334 -0.26024464 -0.2832842 -0.05504456 -0.03080144 0.15937936 0.08115727 -0.037973505
-0.055597007 0.119289644 0.042774685 0.1940654 0.1842444 -0.11502567 0.14523797 -0.14642945
-0.08832875 0.007609023 0.20990662 0.28895456 -0.11016353 0.2186516 -0.11217916 -0.13617729
-0.089577906 -0.25447083 0.25960183 0.07966599 0.2595492 -0.08527629 0.20101805 -0.16512343
-0.30141914 -0.1217156 0.2144503 0.088776976 0.14798573 0.22987044 -0.12505417 -0.2904177
0.0030864726 -0.23856474 -0.049433205 0.07666949 -0.05910711 0.09092595 0.076967135 -0.29162055
-0.2374136 0.09660076 -0.07706257 0.059281018 0.036896355 -0.20070854 -0.11718277 0.08558193
0.00821382 -0.16867688 -0.10346172 -0.06590464 -0.059284184 0.27217352 0.09921147 0.28828797
-0.26068065 0.26635465 0.24681002 0.15215442 -0.18001866 0.22473124 -0.0011803115 -0.12243266
0.30970317 -0.24578993 -0.20442174 0.092713125 -0.07201656 -0.2795444 -0.07662388 -0.2512488
-0.27416286 -0.25282785 0.09408614 -0.29706222 -0.19238205 -0.19972628 0.22050147 -0.048035096
00000000: 8b62 c33d 3cf9 33be 1c73 a3bc 9d6c 1bbe
00000010: 32ea 0e3e fd0d 953e 5049 fc3c 1ac2 943d
00000020: ab9f 81be f643 8cbe 7957 aa3d f09e 1cbe
00000030: e71a dcbd 1296 58be 8aa9 0ebe 5a8c 6dbe
00000040: d832 713e fb80 7e3e dddf 533e f29d cf3c
00000050: 2dda 2dbd cb42 89be ae7d c33d c195 8d3e
00000060: cb43 d93d af46 24be 8ac2 8abe 97d0 0e3e
00000070: d277 4f3e 34f9 823e d88d ef39 e910 83be
00000080: 5d46 6ebc df08 6abe b132 073e 529c f83d
00000090: a741 90be 8cef 343d 3d43 c8bd b3c6 cf3d
000000a0: e626 773e 2acf 673e 189f 183e a83c 27be
000000b0: 841f 403e 6542 883e 66e0 19be 8120 1bbd
000000c0: 7a6a 9f3d da6c 143e f9b8 4bbe 8da0 f3bd
000000d0: 93b4 14be 8b4d 24be a9b5 93be 6352 96be
000000e0: 6105 41be b291 28be 4c23 bfbc a3e2 013e
000000f0: 7501 903e 07d4 94be 8dd7 1f3e 7984 a43c
00000100: 11d4 333e de70 86be d20b 1c3d a12c 49bd
00000110: b8d2 eb3d ef14 b5bd 2189 66be 6a9c 463c
00000120: 2fee 753e b11b 84bd 2036 093e 2dbf 233e
00000130: 1046 8ebe 2500 10be a1eb 933e 8b57 ebbd
00000140: 287e 8e3e 0a83 7c3e 8e07 383d fac7 8dbe
00000150: 8a2a f53d 3324 54bd fb4f 23be 3cde 193e
00000160: 75ae 44be a600 98be 23dc 5b3e 9fb2 9ebd
00000170: d3cf 513e 5323 05be 881e 85be 8295 cebd
00000180: 25af df3d 9c71 7f3e 0ec3 8fbe 6e6a 8ebd
00000190: 6075 6dbe 4049 c0bc c828 babd ee64 9fbe
000001a0: db9a d1bd f476 273e 5cca c93d 7c38 6e3e
000001b0: 7286 183e a80a 93be 4bce 333e c05f 143e
000001c0: 72a4 55be defd 563d 4623 12be 9d9a fcbd
000001d0: ce89 e2bd 28d3 953e 9619 163d 46b0 95be
000001e0: 45e0 53bd 4e37 6d3e c0ae 163e edc4 6cbe
000001f0: cadc 323c a1d7 94be 4163 60be 9b18 8cbe
00000200: cc7c 8cbe 91a3 733d 930e 31bd eb2e 4bbe
00000210: 6686 adbc 6467 803e 320f 343e e610 9b3e
00000220: e46d 3cbe 5f44 54be d872 29be 58e8 6d3d
00000230: 68e8 943d 8b3b 1ebe 3c0c 003e 5cb1 58be
00000240: 5ede e6bd 2f23 1ebe ee04 3bbe 819b ac3d
00000250: 0430 8dbe 3320 3bbe bfd3 b03d f8e7 99be
00000260: d4c1 96bc f3b2 c0bc abf7 233e d5c7 8c3d
00000270: 81ba 273c 3f06 903e 64dd 2e3e 9061 ad3c
00000280: 7f6b 163d 73bf 3c3d 20e8 a33c 2cbd 463e
00000290: 3e67 533e b482 3fbc 6cf2 59be c74d 84be
000002a0: 1be6 713c c93e 85be a00a 91be 6876 61bd
000002b0: 4d53 fcbc 5834 233e c835 a63d 1b8a 1bbd
000002c0: b0b9 63bd 214e f43d 8234 2f3d 15b9 463e
000002d0: 90aa 3c3e 9492 ebbd 43b9 143e 9af1 15be
000002e0: b4e5 b4bd 1c55 f93b c3f1 563e daf1 933e
000002f0: 6b9d e1bd 34e6 5f3e 30be e5bd 0f72 0bbe
00000300: 9f74 b7bd 004a 82be 88ea 843e ec27 a33d
00000310: a2e3 843e 56a5 aebd add7 4d3e 1e16 29be
00000320: 9c53 9abe 0746 f9bd dc98 5b3e b4d0 b53d
00000330: 9289 173e 2863 6b3e 330e 00be a1b1 94be
00000340: 6b46 4a3b 514a 74be 797a 4abd e504 9d3d
00000350: 4c1a 72bd 6237 ba3d f2a0 9d3d 4a4f 95be
00000360: 8d1c 73be 9fd6 c53d fbd2 9dbd a7d0 723d
00000370: a220 173d 8a86 4dbe 85fd efbd 9445 af3d
00000380: 4293 063c a2b9 2cbe bde3 d3bd 03f9 86bd
00000390: f9d3 72bd 545a 8b3e 622f cb3d 7b9a 933e
000003a0: ef77 85be a35f 883e c4bb 7c3e 5ece 1b3e
000003b0: d056 38be f21f 663e afb4 9aba f9bd fabd
000003c0: 6a91 9e3e 5bb0 7bbe ef53 51be 61e0 bd3d
000003d0: 6b7d 93bd 7220 8fbe fbec 9cbd afa3 80be
000003e0: 135f 8cbe a772 81be 3cb0 c03d 8a18 98be
000003f0: cdff 44be 0c85 4cbe 23cb 613e 73c0 44bd

linear1.bias f4 [256]
-0.024275193 0.16440453 -0.072530426 0.16567788 0.30779377 -0.20129652 0.0679646 0.11286984
-0.28094396 0.24120703 -0.09929402 0.19060417 0.011008439 -0.23108558 -0.25390425 0.2596677
0.12604786 0.1853891 -0.24827525 -0.092979945 0.30687574 0.012633477 0.22936997 -0.1921164
-0.11917087 0.13982871 -0.2401221 0.15181874 0.30714983 -0.2031995 -0.07606016 -0.0763452
0.14735991 -0.15153793 -0.2178581 0.17816108 -0.24925418 0.028971242 -0.20144865 -0.17160426
-0.14913504 0.040561657 0.27636942 -0.17411153 -0.28289095 0.22824676 0.291577 -0.1297675
0.1332776 0.22687796 -0.16284685 -0.21059948 0.26746368 -0.15126313 -0.068501264 0.2507131
-0.04793189 -0.020297483 0.23582435 -0.029919483 0.013132561 -0.17351896 0.03384939 0.10154278
-0.050656337 -0.2183951 0.12177007 -0.29425925 -0.24945259 -0.05102494 -0.246737 0.16648996
0.09617164 0.09430895 0.07049773 -0.23112364 0.047732547 0.15689012 0.13007754 0.30764422
0.29241493 -0.21399486 0.1963338 0.2775673 0.10273542 0.10952504 -0.122998506 -0.12375804
0.11316592 -0.19282724 0.04057024 0.19499092 0.10610535 0.2739757 0.30643162 0.23909166
-0.099895775 -0.20189117 0.09885162 -0.034356184 0.23095171 0.013683057 0.03712024 -0.17160514
0.23864031 0.30287933 0.11754258 -0.00075414765 -0.26591498 0.10894984 -0.17684227 0.25938824
0.29335657 -0.04091213 0.0864155 0.010016979 -0.13620077 0.16922258 0.0075427745 0.013744552
0.17634411 0.028209556 -0.13152607 -0.13880734 0.27647096 -0.14912468 0.13279708 0.21958563
0.10821646 0.0495995 -0.06558413 -0.28073654 0.06666014 -0.10360891 0.2859392 0.16507836
0.14251891 0.035531 0.15747543 -0.21030419 -0.16526915 0.07516809 0.036673963 0.25931785
-0.25234234 -0.28512543 0.25577307 0.30016655 -0.044697877 0.03504912 -0.13435785 -0.08588431
0.30116522 -0.28319496 0.24486609 -0.2477679 0.04281845 0.2166137 -0.27800438 0.042538516
-0.09534248 0.27002627 0.12452721 -0.11164197 0.32669896 0.11746507 0.06254835 0.07725931
0.23549035 0.09076162 0.24142633 0.03719342 0.04255774 0.30691957 -0.035684153 0.017392498
-0.033781886 -0.27127442 0.33281112 -0.041663647 -0.19643849 -0.14059971 0.3104982 0.1887296
-0.13006613 0.26819628 -0.20016913 0.26709935 -0.2338736 -0.021138323 0.18861103 0.09211677
0.05818386 0.14348593 -0.07804727 -0.03872086 0.24130726 -0.144577 0.2396339 -0.10243485
0.04971064 0.2678187 0.25514784 0.109697826 0.30652285 0.03576747 0.24337749 0.2010724
0.26241845 -0.03669556 0.011534815 0.05117689 -0.13735084 0.099496156 -0.1535052 -0.06529533
0.031279847 -0.27819198 0.280672 0.017824486 0.09634942 0.1128939 0.19401814 0.03684055
-0.2740238 0.3222536 -0.12085264 -0.24156436 -0.06599806 0.3182017 0.108320855 0.15568009
0.29519868 0.12713127 0.25340667 0.28432828 -0.20292233 0.025721805 -0.13998131 0.29099053
-0.15590183 -0.009713651 -0.13135211 0.009565026 -0.15178244 -0.07030557 0.16152893 0.01312452
0.30963355 -0.031051477 -0.08008493 0.25698882 0.29889002 -0.27694148 0.20331678 -0.21730149
00000000: c5dc c6bc a959 283e d58a 94bd 76a7 293e
00000010: 2597 9d3e ad20 4ebe 0631 8b3d 4d28 e73d
00000020: e3d7 8fbe fafe 763e aa5a cbbd bd2d 433e
00000030: bd5c 343c b3a1 6cbe bdff 81be 2af3 843e
00000040: b112 013e a4d6 3d3e de3b 7ebe 456c bebd
00000050: d11e 9d3e a5fc 4e3c f6df 6a3e 29ba 44be
00000060: db0f f4bd 422f 0f3e 91e2 75be 5f76 1b3e
00000070: be42 9d3e 8813 50be 6ec5 9bbd df5a 9cbd
00000080: 84e5 163e c22c 1bbe 3216 5fbe dc6f 363e
00000090: 7d3c 7fbe 1955 ed3c 8e48 4ebe 07b9 2fbe
000000a0: dbb6 18be fb23 263d 4b80 8d3e 4b4a 32be
000000b0: 15d7 90be 85b9 693e 9549 953e c6e1 04be
000000c0: ec79 083e b252 683e 53c1 26be 64a7 57be
000000d0: 00f1 883e b9e4 1abe 644a 8cbd 785d 803e
000000e0: 3b54 44bd e846 a6bc f07b 713e b419 f5bc
000000f0: f429 573c f4ae 31be a8a5 0a3d a9f5 cf3d
00000100: 057d 4fbd f7a2 5fbe 9662 f93d 26a9 96be
00000110: 8070 7fbe 87ff 50bd a0a8 7cbe 587c 2a3e
00000120: a3f5 c43d 0d25 c13d 1d61 903d adab 6cbe
00000130: 3483 433d cea7 203e 0c33 053e 8b83 9d3e
00000140: 69b7 953e 7821 5bbe ba0b 493e 4d1d 8e3e
00000150: f366 d23d aa4e e03d a4e6 fbbd db74 fdbd
00000160: 89c3 e73d 8174 45be fb2c 263d b3ab 473e
00000170: c34d d93d 8b46 8c3e 9be4 9c3e 72d4 743e
00000180: 2896 ccbd 8fbc 4ebe b872 ca3d 12b9 0cbd
00000190: 9b7e 6c3e e72e 603c 650b 183d 42b9 2fbe
000001a0: 205e 743e 0013 9b3e 2aba f03d feb1 45ba
000001b0: 0226 88be 1821 df3d 2416 35be 89ce 843e
000001c0: d532 963e 7a93 27bd 9cfa b03d 411e 243c
000001d0: 3778 0bbe af48 2d3e 6129 f73b d430 613c
000001e0: 8d93 343e ba17 e73c c5ae 06be 8323 0ebe
000001f0: 9a8d 8d3e 24b4 18be f5fb 073e 0edb 603e
00000200: 97a0 dd3d d828 4b3d f950 86bd b3bc 8fbe
00000210: 1d85 883d e930 d4bd 9f66 923e 4d0a 293e
00000220: 7af0 113e f488 113d 3d41 213e fb59 57be
00000230: 513c 29be baf1 993d 7037 163d 4fc5 843e
00000240: 0433 81be f6fb 91be b0f4 823e 6eaf 993e
00000250: 1f15 37bd ab8f 0f3d 1b95 09be 1de4 afbd
00000260: 5432 9a3e eefe 90be 2dbe 7a3e deb6 7dbe
00000270: 6662 2f3d fbcf 5d3e 9756 8ebe de3c 2e3d
00000280: eb42 c3bd e240 8a3e 1f08 ff3d 8ca4 e4bd
00000290: 1645 a73e 8791 f03d 5919 803d 213a 9e3d
000002a0: 6224 713e 3ae1 b93d 7738 773e 2158 183d
000002b0: 0651 2e3d 9024 9d3e 8c29 12bd b67a 8e3c
000002c0: e05e 0abd 7be4 8abe 3866 aa3e 80a7 2abd
000002d0: 2c27 49be 5ff9 0fbe 9ff9 9e3e 5542 413e
000002e0: 0e30 05be 0651 893e 23f9 4cbe 3fc1 883e
000002f0: 907c 6fbe 472a adbc 4023 413e b8a7 bc3d
00000300: 3352 6e3d faed 123e 3fd7 9fbd c499 1ebd
00000310: 4019 773e fe0b 14be 9762 753e 5dc9 d1bd
00000320: 629d 4b3d 881f 893e bda2 823e 41a9 e03d
00000330: 90f0 9c3e e980 123d f337 793e ece5 4d3e
00000340: b65b 863e 154e 16bd 85fc 3c3c dc9e 513d
00000350: b3a5 0cbe a4c4 cb3d 7830 1dbe 8fb9 85bd
00000360: 4c1f 003d 2e6f 8ebe 3eb4 8f3e a804 923c
00000370: d852 c53d eb34 e73d b1ac 463e 1ee6 163d
00000380: d94c 8cbe 6dfe a43e 9781 f7bd a65c 77be
00000390: fe29 87bd 55eb a23e 53d7 dd3d 9a6a 1f3e
000003a0: 4824 973e b32e 023e 85be 813e 7a93 913e
000003b0: dfca 4fbe 89b6 d23c 4357 0fbe b6fc 943e
000003c0: bba4 1fbe 0126 1fbc 2b81 06be a0b6 1c3c
000003d0: db6c 1bbe 5efc 8fbd d767 253e 3a08 573c
000003e0: 4a88 9e3e ab5f febc 9103 a4bd 0a94 833e
000003f0: 1d08 993e 46cb 8dbe 4632 503e 4884 5ebe

linear2.weight f4 [256, 256]
0.059371658 0.07462561 0.058361314 0.008454102 0.039405514 -0.010615779 0.0696937 0.019087916
-0.013799549 0.042477205 0.008913964 -0.016296405 -0.044345956 -0.014649667 0.066919446 0.018672042
0.01210522 0.075640544 -0.038028356 -0.0004451284 0.038987078 0.0512529 -0.03398562 -0.04170913
0.04379648 -0.015966482 -0.009240799 -0.04123889 0.05231698 0.075996906 0.025426686 0.08097392
0.03396887 0.05715288 -0.061012864 -0.027235731 -0.025484454 0.00083180517 -0.011816831 0.07186509
0.05503139 0.0024725145 0.019672224 -0.0085778525 0.057512883 0.023743311 0.02610071 -0.03280366
0.056358267 -0.04894755 0.04186584 0.04768547 0.008490922 -0.019726323 -0.015366008 0.04160593
-0.054091305 -0.04474682 0.015495587 0.007213544 0.042748775 -0.031079922 0.03024086 0.04616785
-0.0059358273 -0.02879358 -0.018927138 0.0056032725 0.0020544222 -0.016737053 -0.01708925 0.026349662
0.019757606 -0.03077803 -0.029381061 0.015512907 0.0558807 0.062131956 0.03850002 0.012757185
0.06488664 0.06161964 -0.04098627 0.031805012 0.052065652 -0.0013077063 -0.020264983 0.006205922
-0.02544222 0.016123403 -0.040041886 -0.019313537 0.040778276 0.076629736 0.029598536 0.023807742
0.072107665 0.014823951 -0.03299965 0.03826624 -0.005178295 -0.024281405 0.06441751 -0.0031799115
0.029612988 0.05708607 -0.018929353 0.03626322 0.052791905 0.033547875 -0.05116117 0.0034680483
0.084497765 -0.036095943 0.026438098 0.046626173 -0.017595552 0.025688987 0.07420854 -0.038361818
-0.004502223 -0.029558614 -0.036326285 -0.021886159 0.048181757 -0.0382836 0.030447422 0.012504499
-0.04001741 0.061958726 0.025771758 -0.061130337 -0.0049399985 0.03329414 0.05893014 -0.028799849
0.04423515 0.03593546 0.0061178464 -0.016356677 0.025205765 0.038432874 0.048650075 0.0005486781
0.0509753 0.037192866 0.04438303 0.0038561558 -0.022305364 0.035552606 0.052798428 -0.005076265
0.023367044 0.012806344 -0.03825023 -6.9111586e-05 0.0003275781 0.08096312 -0.013094946 -0.014841927
0.03520959 -0.014776015 -0.03450003 0.021715522 0.020883793 0.038871635 0.007300509 -0.051203024
0.001819584 0.004939548 -0.011283654 0.031013802 0.019432418 0.05024854 0.065525085 -0.052290633
-0.024892617 0.0069368132 -0.023857798 -0.022363517 -0.009509444 0.033610098 -0.021563914 0.010209865
0.04898078 -0.032939304 0.03141669 0.0021808324 -0.010298132 0.033156157 0.04202855 -0.03260147
0.060659837 0.0069595603 -0.008086885 -0.025638469 0.034733634 -0.055467553 -0.016707184 -0.042421907
0.06997072 -0.04328308 0.051575407 -0.021352869 -0.028437383 0.052722335 0.056202896 0.048428673
-0.041652735 -0.020903893 0.00021369464 -0.045419395 0.032209117 -0.005357393 0.034540877 0.07448248
0.07298758 0.009114563 0.01914683 0.046145074 0.023873927 -0.0050751427 -0.037027024 0.016157743
0.036803305 0.06475718 0.042546906 -0.027622081 -0.02045869 0.058390092 -0.016148293 0.018545894
0.010168036 0.018131595 -0.001136562 -0.013344992 0.003221346 0.016544977 -0.023041606 0.073529646
0.029363267 0.0032522068 0.046906833 0.053382438 -0.01456869 -0.031057268 -0.039505173 0.032781538
0.058030583 0.012509227 0.07391195 0.061196946 0.077985495 0.03217026 -0.021006402 0.019530008
00000000: b22f 733d 50d5 983d 460c 6f3d 1383 0a3c
00000010: ad67 213d ceed 2dbc 92bb 8e3d 435e 9c3c
00000020: 8117 62bc 94fc 2d3d e00b 123c 0a80 85bc
00000030: 1ba4 35bd 2805 70bc 100d 893d 1cf6 983c
00000040: f954 463c 6ee9 9a3d 9fc3 1bbd 1f60 e9b9
00000050: eab0 1f3d 90ee 513d 8134 0bbd 31d7 2abd
00000060: f063 333d 24cc 82bc b866 17bc 1cea 28bd
00000070: 544a 563d 44a4 9b3d a04b d03c a8d5 a53d
00000080: f122 0b3d 2319 6a3d a0e8 79bd 781d dfbc
00000090: c6c4 d0bc 800d 5a3a 629b 41bc 012e 933d
000000a0: 9868 613d e909 223b a527 a13c 1f8a 0cbc
000000b0: a192 6b3d 5581 c23c 28d1 d53c 215d 06bd
000000c0: edd7 663d 3a7d 48bd 847b 2b3d d751 433d
000000d0: 821d 0b3c 1999 a1bc b5c1 7bbc fb6a 2a3d
000000e0: d88e 5dbd 7148 37bd 34e1 7d3c 985f ec3b
000000f0: 5719 2f3d 529b febc aebb f73c 801a 3d3d
00000100: 5481 c2bb 84e0 ebbc 160d 9bbc a89b b73b
00000110: 7ca3 063b 251c 89bc c1fe 8bbc 3fdb d73c
00000120: b4da a13c 3522 fcbc 8db0 f0bc d929 7e3c
00000130: 29e3 643d 147e 7e3d 32b2 1d3d 8303 513c
00000140: 49e3 843d e064 7c3d 38e1 27bd f945 023d
00000150: cb42 553d 5867 abba c002 a6bc 0c5b cb3b
00000160: 346c d0bc 3a15 843c f602 24bd 6c37 9ebc
00000170: 1f07 273d 0df0 9c3d a178 f23c 7408 c33c
00000180: 2fad 933d 28e0 723c a42a 07bd 10bd 1c3d
00000190: b0ae a9bb cce9 c6bc 54ed 833d 1066 50bb
000001a0: f096 f23c 15d3 693d bb11 9bbc be88 143d
000001b0: 533c 583d 7f69 093d 608e 51bd 3248 633b
000001c0: 2a0d ad3d 57d9 13bd b694 d83c 16fb 3e3d
000001d0: 8c24 90bc b671 d23c a6fa 973d 4821 1dbd
000001e0: 6287 93bb e824 f2bc dfca 14bd 9a4a b3bc
000001f0: 3c5a 453d 44cf 1cbd df6c f93c acdf 4c3c
00000200: 4ce9 23bd 6fc8 7d3d 4b1f d33c ce63 7abd
00000210: b6df a1bb 705f 083d bb60 713d a9ed ebbc
00000220: eb2f 353d 1031 133d 3778 c83b 70fe 85bc
00000230: 527c ce3c ca6b 1d3d 4d45 473d 2ad5 0f3a
00000240: 7acb 503d 8c57 183d fbca 353d 8fb7 7c3b
00000250: bdb9 b6bc 9c9f 113d 2a43 583d cc56 a6bb
00000260: 3e6c bf3c b3d1 513c 46ac 1cbd 00f0 90b8
00000270: cabe ab39 fecf a53d 2f8c 56bc 8e2b 73bc
00000280: ee37 103d 1917 72bc e74f 0dbd c0e4 b13c
00000290: 7d14 ab3c dd37 1f3d 1c39 ef3b 43ba 51bd
000002a0: 1c7f ee3a efdb a13b 13df 38bc a810 fe3c
000002b0: bc30 9f3c 6ad1 4d3d 0432 863d b42e 56bd
000002c0: 9aeb cbbc 354e e33b 6e71 c3bc b233 b7bc
000002d0: 80cd 1bbc beaa 093d cea6 b0bc 4747 273c
000002e0: 12a0 483d 5deb 06bd caae 003d 4cec 0e3b
000002f0: 7fb9 28bc c0ce 073d 2126 2c3d 1e89 05bd
00000300: 7376 783d 060d e43b db7e 04bc c407 d2bc
00000310: db44 0e3d f231 63bd 81dd 88bc 98c2 2dbd
00000320: cf4c 8f3d 9949 31bd bc40 533d 36ec aebc
00000330: 84f5 e8bc 60f3 573d 0235 663d 255d 463d
00000340: 0f9c 2abd a43e abbc 3813 6039 b009 3abd
00000350: b5ed 033d 128d afbb bc7a 0d3d 458a 983d
00000360: 837a 953d 4055 153c d0d9 9c3c 9e02 3d3d
00000370: 4193 c33c 624d a6bb a6a9 17bd 3e5d 843c
00000380: 10bf 163d 6a9f 843d aa45 2e3d b447 e2bc
00000390: fc98 a7bc 732a 6f3d 6d49 84bc 8fed 973c
000003a0: d697 263c b688 943c b1f8 94ba f4a4 5abc
000003b0: 381d 533b 5589 873c c0c1 bcbc b696 963d
000003c0: 3c8b f03c fa22 553b 6121 403d 8ba7 5a3d
000003d0: 84b1 6ebc d06b febc 2dd0 21bd ef45 063d
000003e0: 7ab1 6d3d 80f3 4c3c 265f 973d a6a9 7a3d
000003f0: dcb6 9f3d f6c4 033d 9e15 acbc 65fd 9f3c

linear2.bias f4 [256]
0.056887973 0.083291665 -0.02539406 0.018116273 0.013686851 -0.06955135 -0.033007395 0.02752408
-0.020847825 -0.02487956 -0.038928926 -0.0002732016 0.0031301929 -0.060484085 0.02212666 -0.0066321543
-0.041179422 -0.06807632 0.023680938 0.055020332 0.0038069114 0.017508091 -0.012002945 -0.009414026
-0.00954436 -0.05305001 0.009986781 0.059910472 -0.032342266 0.083303794 -0.027596118 0.052529566
-0.042313453 0.029058909 0.0035304697 -0.012208265 -0.007372103 0.055482335 0.018110968 -0.019684518
-0.058662254 0.07637575 0.007912034 0.011432459 0.013994121 -0.017030798 -0.035468876 -0.012942687
0.05529855 -0.017537242 0.0007015293 -0.030159317 -0.0375322 -0.018295068 0.02351968 0.0491203
-0.033485655 -0.027254462 0.038034923 0.037237283 -0.033122912 0.01628372 -0.033708774 -0.027833521
0.08573348 -0.0016676261 -0.069519676 -0.010624002 -0.06502089 -0.033733733 -0.058871217 -0.041385382
-0.032320026 0.038720883 -0.0025549417 -0.046447497 0.048434734 0.060542345 -0.050870538 0.014029811
0.02618291 0.048487253 -0.010228656 0.05343514 0.004931145 0.0026231448 -0.05673911 0.030050885
0.022393944 -0.027098097 -0.028490586 -0.043554552 0.018190552 -0.015501526 -0.016319634 0.007727295
-0.053565126 -0.03583854 -0.04815498 0.019163378 0.04065124 0.068826705 -0.03700624 0.037855472
0.038398147 -0.019931898 -0.046799768 0.07648163 0.03455134 -0.05022166 -0.031253014 -0.0005269736
-0.044727918 0.054238893 0.0551959 -0.029800765 0.07410038 0.022771029 -0.07062002 0.03779716
0.03786436 -0.030219674 0.054733347 -0.044439092 -0.060913555 0.042914063 -0.025466291 0.0809847
-0.020852314 0.035334617 0.019849181 -0.035525624 0.015103576 -0.0095923655 0.013538234 0.035256002
-0.050114356 0.062837265 0.020061826 0.051601868 -0.0036910297 -0.016411252 -0.023862038 0.001174041
-0.0410816 0.0075691543 0.05011173 -0.034706198 0.047272377 -0.06402947 -0.01875323 -0.042760387
0.00057063106 0.05958802 0.0014695437 -0.03750557 0.07437552 0.050046884 -0.06381569 0.0012434721
0.016382238 0.009657734 0.091274485 0.023147173 -0.06447871 0.032673333 0.012304482 -0.020943854
-0.03345801 -0.002970214 -0.0687497 0.06596043 -0.04549007 0.0623825 -0.0030349547 0.03942296
0.032357395 -0.016430283 -0.003386307 -0.036114488 -0.018142661 -0.021901775 0.01299508 -0.019090585
-0.05902482 0.07962072 0.006619183 0.05848062 -0.019781386 -0.0019047558 0.017286211 -0.03138677
0.04230185 -0.03749657 -0.017717179 -0.019663103 -0.016031308 0.0010949585 0.030483395 -0.052350394
0.025933884 0.0675132 -0.044355035 -0.01755898 -0.046560768 0.032310892 -0.044424467 -0.02113517
-0.0184759 0.017305762 -0.0024461097 0.03139385 -0.022445865 0.04608658 -0.05759568 -0.008861305
0.06533701 0.07271813 0.019275643 0.009881308 0.00128335 0.05250137 -0.04455741 0.023825087
0.035206433 0.032146867 0.0265011 0.068324365 0.025177823 0.053802826 0.021137826 -0.06038025
0.0014545252 0.04140841 -0.02847839 -0.012834121 -0.031662744 0.04576691 0.04990601 -0.007351581
-0.04568461 0.058317285 -0.025481544 0.048935577 -0.0411646 0.04648814 -0.020634715 0.040519584
-0.060813457 0.029694118 -0.004248724 0.05546669 0.02605848 -0.03403192 0.05976152 0.06266294
00000000: 5d03 693d d294 aa3d 3407 d0bc 9468 943c
00000010: d03e 603c f070 8ebd c332 07bd 2e7a e13c
00000020: 0fc9 aabc 38d0 cbbc f073 1fbd 7f3c 8fb9
00000030: ec23 4d3b 29be 77bd f842 b53c 8b52 d9bb
00000040: c1ab 28bd 996b 8bbd 87fe c13c 005d 613d
00000050: 607d 793b 216d 8f3c 00a8 44bc 493d 1abc
00000060: f35f 1cbc f84a 59bd 989f 233c af64 753d
00000070: 5379 04bd 2e9b aa3d 4111 e2bc 3e29 573d
00000080: df50 2dbd f30c ee3c 745f 673b 2d05 48bc
00000090: af91 f1bb 7241 633d 745d 943c 6d41 a1bc
000000a0: d547 70bd e46a 9c3d 7aa1 013c 354f 3b3c
000000b0: 9947 653c 2c84 8bbc d047 11bd 900d 54bc
000000c0: bb80 623d 43aa 8fbc d6e6 373a ac10 f7bc
000000d0: 5dbb 19bd 8adf 95bc 58ac c03c 5e32 493d
000000e0: 4128 09bd c044 dfbc 82ca 1b3d 1f86 183d
000000f0: e4ab 07bd 7065 853c 3612 0abd 2003 e4bc
00000100: 0995 af3d 3f94 daba 5560 8ebd 4b10 2ebc
00000110: ac29 85bd 622c 0abd f222 71bd b883 29bd
00000120: 0162 04bd ca99 1e3d cf70 27bb bb3f 3ebd
00000130: 8063 463d 40fb 773d a05d 50bd 4bdd 653c
00000140: 8b7d d63c 929a 463d 1896 27bc cede 5a3d
00000150: 7195 a13b 11e9 2b3b 4567 68bd 462d f63c
00000160: 8173 b73c d4fc ddbc 1765 e9bc 4266 32bd
00000170: 5a04 953c 1dfa 7dbc c1b0 85bc 4035 fd3b
00000180: 1b67 5bbd 6fcb 12bd 283e 45bd 84fc 9c3c
00000190: ea81 263d 04f5 8c3d db93 17bd 570e 1b3d
000001a0: 6047 1d3d 3848 a3bc 1db1 3fbd 67a2 9c3d
000001b0: b585 0d3d 3ab5 4dbd 2903 00bd 9a24 0aba
000001c0: 9f34 37bd 9a29 5e3d 1915 623d bc20 f4bc
000001d0: f1c1 973d 4f8a ba3c 3ba1 90bd 32d1 1a3d
000001e0: a917 1b3d 408f f7bc 1330 603d c405 36bd
000001f0: 7e80 79bd a8c6 2f3d af9e d0bc 4edb a53d
00000200: 79d2 aabc 08bb 103d c09a a23c 5183 11bd
00000210: fd74 773c 4c29 1dbc 78cf 5d3c 9968 103d
00000220: b644 4dbd d3b0 803d b358 a43c 7b5c 533d
00000230: 34e5 71bb e470 86bc 527a c3bc 47e2 993a
00000240: 2e45 28bd ab06 f83b f541 4d3d 1628 0ebd
00000250: aea0 413d e221 83bd 60a0 99bc 8425 2fbd
00000260: 6796 153a 9112 743d b49d c03a 719f 19bd
00000270: 3152 983d f6fd 4c3d cdb1 82bd 00fc a23a
00000280: 0b34 863c 793b 1e3c 1eee ba3d 249f bd3c
00000290: 6a0d 84bd 79d4 053d bd98 493c 7292 abbc
000002a0: 440b 09bd eca7 42bb a5cc 8cbd 4316 873d
000002b0: cc53 3abd cb84 7f3d 17e6 46bb f879 213d
000002c0: 3089 043d cd98 86bc ceec 5dbb c9ec 13bd
000002d0: eb9f 94bc 5a6b b3bc 51e9 543c dc63 9cbc
000002e0: 02c4 71bd 3010 a33d bbe5 d83b 6089 6f3d
000002f0: 930c a2bc 00a9 f9ba d09b 8d3c 6a8f 00bd
00000300: b444 2d3d 0196 19bd 9e23 91bc 8414 a1bc
00000310: 1754 83bc b684 8f3a 50b8 f93c 5e6d 56bd
00000320: 4c73 d43c 5c44 8a3d a0ad 35bd dad7 8fbc
00000330: 81b6 3ebd 6d58 043d 6ef6 35bd aa23 adbc
00000340: c55a 97bc d0c4 8d3c e94e 20bb d696 003d
00000350: 64e0 b7bc 48c5 3c3d 73e9 6bbd 022f 11bc
00000360: 69cf 853d 3eed 943d f4e7 9d3c 36e5 213c
00000370: 1536 a83a ad0b 573d d581 36bd d42c c33c
00000380: 9f34 103d 6fac 033d d618 d93c a5ed 8b3d
00000390: b941 ce3c 5a60 5c3d 3c29 ad3c 4851 77bd
000003a0: c4a5 be3a dd9b 293d 834b e9bc 3446 52bc
000003b0: cbb0 01bd 1576 3b3d 3f6a 4c3d 88e5 f0bb
000003c0: c91f 3bbd 1bde 6e3d acbe d0bc ac70 483d
000003d0: 369c 28bd 596a 3e3d 220a a9bc ddf7 253d
000003e0: 8817 79bd 1441 f33c e138 8bbb 0a31 633d
000003f0: 9878 d53c 0e65 0bbd 7fc8 743d 6d55 803d

linear3.weight f4 [256, 256]
0.036384538 0.048935328 -0.04793158 -0.060048103 -0.012433566 0.039633334 0.026579484 -0.0028424016
-0.04641121 -0.020414343 -0.014594734 0.016611522 0.03963756 -0.030245028 0.016425528 -0.011687015
-0.044803955 0.003112654 -0.020820118 -0.036614772 0.0039348453 0.036896132 0.055697158 -0.052818213
0.01532825 -0.030885823 -0.006773974 -0.03461446 0.04952864 -0.012434069 -0.012264347 -0.05225994
0.05439178 0.047544718 -0.0115626175 -0.029825833 0.0036298493 -0.067275055 0.004195327 0.029658163
0.052817456 -0.021261945 0.0049238345 0.023785405 -0.02333805 0.009099961 0.026542746 0.046952285
-0.04090984 0.009857261 -0.044425134 0.033338375 0.018144494 0.04596984 0.006118089 -0.07417648
-0.019612134 -0.019281022 0.022774765 0.0067408592 -0.056136314 0.0118830195 0.021822084 -0.015273845
-0.0016342183 0.0041265115 -0.054217152 0.02406643 -0.05274071 0.035971973 0.030298539 -0.003107928
-0.023494467 0.050859567 -0.049388055 0.030447058 0.040865224 -0.05521354 0.04856764 -0.042744577
0.024810445 0.0077665886 -0.0128978295 -0.04774454 0.022250442 -0.022398882 -0.066900566 0.021783927
-0.0017596076 0.05617198 0.02747126 0.020220205 0.024364552 -0.061064128 0.017951498 0.012366705
0.029028762 -0.054067925 -0.05382781 0.031007214 -0.013119393 -0.035160653 -0.062602445 -0.057243824
-0.05234945 -0.03351602 0.013777686 0.012321017 0.011136494 0.045979016 -0.05739238 -0.043030523
-0.020891868 0.0017331748 0.03404786 -0.0012239218 0.0041225883 -0.037399106 0.04304153 -0.0568998
0.0074463855 -0.008937366 -0.046745703 0.039823517 -0.026492931 -0.033856817 0.031790234 0.0018273735
-0.010192114 0.03698453 -0.0008112403 -0.03801222 0.051161982 -0.02070988 -0.05860938 0.021479722
0.010751409 -0.0031932476 0.011242408 -0.047256403 0.039535902 0.041433483 0.011451332 -0.0157361
0.05502393 0.031913795 0.053213187 0.025543237 -0.011138296 0.011080346 0.03522759 0.025137845
-0.018964343 0.020002758 -0.026467474 0.034476034 0.04164577 0.0073471516 0.011219637 -0.010620132
0.04954968 -0.017418358 -0.0353586 0.049016617 0.06282337 0.01176367 -0.05793866 -0.016577074
0.04957114 -0.0031313896 0.029276377 -0.029069582 0.055393577 0.03426458 0.010112096 0.011413235
-0.009576762 -0.026035028 -0.010220071 0.047115933 0.016098088 0.052990492 -0.062283203 0.023602279
-0.004907803 -0.0012579239 -0.044312887 0.028833833 0.0141686555 0.0068059787 -0.03890386 0.023754334
-0.041765105 -0.0026946524 0.01525155 0.0004349649 0.025569389 0.016540317 0.0008983222 -0.0075917384
-0.024514044 -0.0069295727 -0.006891951 -0.04567352 -0.040896863 0.04030521 0.0072444305 0.009315497
-0.029867362 -0.01682921 -0.037776012 -0.05342025 0.056786716 0.012415116 -0.07116107 0.011170104
-0.06302159 -0.0010642543 0.036217343 0.049848966 0.015035494 0.03242169 -0.017639764 0.030373784
0.0054988116 -0.02479416 -0.04484236 0.014307408 -0.052477505 -0.0026785391 0.019266352 -0.001326181
-0.03984523 0.039490525 -0.031457562 -0.009704344 0.029396899 -0.07015303 -0.018029116 -0.029557839
-0.04334579 0.027443875 -0.022218 -0.029216897 0.0011827672 0.01781889 0.050363697 -0.00525083
0.049706966 0.0613185 -0.06000351 0.039321326 0.041327856 -0.020587737 0.025064766 0.03988942
00000000: f407 153d 6970 483d e853 44bd 00f5 75bd
00000010: 28b6 4bbc 9056 223d 38bd d93c 9647 3abb
00000020: ae19 3ebd fb3b a7bc c01e 6fbc e314 883c
00000030: fe5a 223d 6cc4 f7bc d48e 863c e57a 3fbc
00000040: 5a84 37bd abfd 4b3b f48e aabc 5ff9 15bd
00000050: e0ef 803b 6620 173d b422 643d e957 58bd
00000060: 5723 7b3c 4404 fdbc 36f8 ddbb e4c7 0dbd
00000070: 8bde 4a3d 44b8 4bbc 66f0 48bc 850e 56bd
00000080: eac9 5e3d 40be 423d 2271 3dbc 4e55 f4bc
00000090: c4e2 6d3b 81c7 89bd f478 893b adf5 f23c
000000a0: 1e57 583d 882d aebc 1e58 a13b 9cd9 c23c
000000b0: 702f bfbc 0118 153c 2c70 d93c 0a51 403d
000000c0: 1491 27bd 5980 213c 21f7 35bd d28d 083d
000000d0: c3a3 943c df4a 3c3d 407a c83b d7e9 97bd
000000e0: a0a9 a0bc 3cf3 9dbc 2592 ba3c 6de2 dc3b
000000f0: 31ef 65bd ffb0 423c 3ac4 b23c 263f 7abc
00000100: 4433 d6ba b037 873b ce12 5ebd f626 c53c
00000110: a506 58bd 5957 133d a434 f83c 61ae 4bbb
00000120: 7877 c0bc 1f52 503d 214b 4abd 1c6c f93c
00000130: 4b62 273d 9827 62bd ddee 463d f014 2fbd
00000140: 463f cb3c de7e fe3b 6b51 53bc c78f 43bd
00000150: 8f46 b63c dc7d b7bc 2a03 89bd 3574 b23c
00000160: a2a2 e6ba 9714 663d 680b e13c d8a4 a53c
00000170: 2b98 c73c 611e 7abd 050f 933c b89d 4a3c
00000180: bacd ed3c 5476 5dbd 8d7a 5cbd d702 fe3c
00000190: b9f2 56bc 9e04 10bd b635 80bd 8078 6abd
000001a0: 606c 56bd 1848 09bd cebb 613c 17de 493c
000001b0: d775 363c 7e54 3c3d 4614 6bbd c640 30bd
000001c0: 6c25 abbc b22b e33a c575 0b3d 006c a0ba
000001d0: c716 873b ce2f 19bd 514c 303d c40f 69bd
000001e0: cf00 f43b 086e 12bc 6c78 3fbd fc1d 233d
000001f0: b407 d9bc 72ad 0abd 7a36 023d 7b84 ef3a
00000200: d3fc 26bc 177d 173d 6aa9 54ba b4b2 1bbd
00000210: 3a8f 513d c4a7 a9bc 6410 70bd 3ef6 af3c
00000220: ae26 303c ce45 51bb 1432 383c ee8f 41bd
00000230: 66f0 213d 28b6 293d 5e9e 3b3c fee8 80bc
00000240: c660 613d 0ab8 023d 12f6 593d 0d40 d13c
00000250: 667d 36bc 578a 353c ce4a 103d e2ed cd3c
00000260: 1c5b 9bbc d3dc a33c 51d2 d8bc be36 0d3d
00000270: c194 2a3d 60c0 f03b 91d2 373c 1000 2ebc
00000280: 9bf4 4a3d f2b0 8ebc 2ed4 10bd a6c5 483d
00000290: 8aa9 803d 68bc 403c 1751 6dbd a5cc 87bc
000002a0: 1c0b 4b3d 0038 4dbb 03d5 ef3c 5523 eebc
000002b0: 60e4 623d 0459 0c3d 34ad 253c 94fe 3a3c
000002c0: dae7 1cbc 6947 d5bc 1672 27bc a3fc 403d
000002d0: 23e0 833c 8f0c 593d ac1c 7fbd 9159 c13c
000002e0: a3d1 a0bb ece0 a4ba 6e81 35bd ee34 ec3c
000002f0: a623 683c b004 df3b a759 1fbd 7398 c23c
00000300: e311 2bbd c498 30bb a3e1 793c 000c e439
00000310: e576 d13c 8f7f 873c 627d 6b3a 1ec4 f8bb
00000320: add1 c8bc 7811 e3bb e0d5 e1bb 2814 3bbd
00000330: 7883 27bd 1317 253d b062 ed3b 07a0 183c
00000340: 66ac f4bc 69dd 89bc 05bb 1abd 31cf 5abd
00000350: 3099 683d c568 4b3c e5bc 91bd d002 373c
00000360: 7711 81bd 737e 8bba a358 143d 6e2e 4c3d
00000370: 6f57 763c 9bcc 043d 4481 90bc 71d2 f83c
00000380: 602f b43b 1f1d cbbc 9fac 37bd 9e69 6a3c
00000390: a7f2 56bd 6e8a 2fbb 78d4 9d3c 40d3 adba
000003a0: c034 23bd d1c0 213d a5d9 00bd f8fe 1ebc
000003b0: c4d1 f03c 64ac 8fbd ccb1 93bc 4823 f2bc
000003c0: 5b8b 31bd fad1 e03c 8602 b6bc 4658 efbc
000003d0: 1507 9b3a ecf8 913c 2a4a 4e3d 280f acbb
000003e0: 8899 4b3d 1c29 7b3d 3ec6 75bd 660f 213d
000003f0: 6647 293d 9da7 a8bc a054 cd3c 1763 233d

linear3.bias f4 [256]
0.025774255 -0.029036585 -0.007802579 0.015716175 0.014012791 -0.016537193 -0.025088442 -0.030954883
-0.04124388 -0.0160915 -0.031157939 0.04361657 -0.018143531 0.07897922 0.04494817 0.030917697
-0.03308746 0.04309535 -0.032019816 0.025365165 0.06250356 -0.062196605 0.028320082 0.040485185
-0.040191215 0.01434313 0.0066655166 0.053697992 -0.05573697 0.047270592 0.020469455 -0.044484
0.0062860637 0.0032902686 0.0061461385 0.017015457 0.00087899575 -0.0017921905 -0.042550027 -0.054803766
0.022768343 -0.019520907 -0.016573079 -0.065543585 -0.015027605 -0.050676152 -0.009153404 0.042549033
-0.0039269854 0.080272466 -0.0033936482 0.019552626 0.027282683 0.04053931 0.039271645 -0.056232743
0.060729347 -0.022662224 -0.014093526 0.006448358 0.019821625 0.045254294 0.014871003 -0.03780354
0.031632733 0.04717397 -0.036101118 0.04220185 0.031213338 -0.014207669 0.016869878 -0.029005535
-0.030970067 -0.05512345 0.06517309 -0.048489332 0.026755301 0.06301861 -0.032936197 -0.032903645
-0.004606826 -0.0043064826 -0.023595951 0.034316506 0.013072147 -0.015102222 1.6117876e-05 -0.021946102
0.0021723434 -0.058585607 -0.01957302 -0.05159927 0.064946316 -0.045661896 0.03833157 -0.0018294677
0.021186443 0.044813126 0.03511866 0.051675227 -0.04802543 -0.05117793 -0.032531697 -0.06104671
0.048597667 -0.039480172 0.040996388 -0.030975394 -0.0279698 -0.049064342 -0.005036692 -0.05184344
-0.044015206 -0.038865577 -0.05001664 0.04650113 -0.0009118678 0.029294088 0.016039573 0.021054637
0.013455271 0.012428358 -0.046051048 -0.017303174 -0.005472476 -0.033164587 -0.0050436254 -0.039007865
0.006410835 0.036046833 -0.05779191 -0.016221715 0.014789092 -0.0007094718 0.070002705 0.025056072
0.050662406 -0.04605116 -0.020731742 0.08688568 -0.013450173 -0.053564668 -0.04633517 -0.027509568
-0.0037043164 0.02275308 -0.019936025 -0.034987405 0.0019601681 0.0104755 -0.027307717 -0.05522807
0.06490239 -0.025277054 -0.0030268335 -0.029893294 0.027733907 -0.013703261 -0.011873045 -0.024034472
-0.016124181 -0.0029350438 0.00073701335 0.011690784 0.069541946 0.054863676 -0.064322 -0.02987782
-0.05016789 0.03904265 0.03001721 -0.031156547 -0.057733603 -0.05165354 -0.015432723 0.00819986
0.03442345 -0.028296484 0.04391864 -0.0005639463 0.067368604 0.061781716 0.024577616 -0.024270665
0.053684607 -0.060274497 -0.035482682 0.009895733 -0.06232188 0.088320725 0.020900298 -0.007646245
0.029272906 -0.03857516 -0.028435115 0.03723154 0.016401207 -0.03779998 0.014721643 0.035468277
-0.026830142 0.02158053 0.058093052 -0.012764253 -0.03145062 0.028876586 0.0027760393 -0.022070797
0.039194472 -0.04116173 -0.041798264 -0.014989391 0.018383726 0.02792223 0.000983039 -0.0403976
0.00043445622 0.050120097 0.011491834 0.007911155 -0.05994203 -0.027189778 -0.027813442 -0.0011456269
0.039548215 0.011669301 -0.06223374 -0.003321603 0.020531692 -0.0019787732 -0.033120558 0.036146007
-0.011588787 -0.025625417 -0.012135135 -0.06380811 -0.0012287014 -0.012259284 0.00039956093 0.027526913
0.028614704 -0.016248548 -0.041504372 0.05436724 0.08145976 0.014333958 -0.051379334 0.019021936
-0.040399857 0.046612006 -0.009141557 0.09009201 -0.010745788 -0.036847338 0.013336217 -0.016659103
00000000: 8824 d33c 22de edbc c7ac ffbb 35bf 803c
00000010: e895 653c 0279 87bc 4786 cdbc 1895 fdbc
00000020: 58ef 28bd 52d2 83bc ef3e ffbc 4aa7 323d
00000030: bea1 94bc dbbf a13d 931b 383d 1c47 fd3c
00000040: b786 07bd c084 303d 3627 03bd 9bca cf3c
00000050: de01 803d dec1 7ebd 84ff e73c cbd3 253d
00000060: 8b9f 24bd 73ff 6a3c 686a da3b 6df2 5b3d
00000070: 734c 64bd cf9e 413d 8faf a73c db34 36bd
00000080: 53fb cd3b 8ca1 573b 8c65 c93b 0064 8b3c
00000090: 686c 663a efe7 eaba f048 2ebd ea79 60bd
000000a0: ad84 ba3c 4fea 9fbc 44c4 87bc b73b 86bd
000000b0: 5836 76bc cc91 4fbd 29f8 15bc e547 2e3d
000000c0: f1ad 80bb e465 a43d f867 5ebb d42c a03c
000000d0: ef7f df3c 8c0c 263d 4edb 203d 4e54 66bd
000000e0: 56bf 783d 21a6 b9bc 88e8 66bc bf4c d33b
000000f0: f660 a23c 915c 393d 82a5 733c e2d7 1abd
00000100: 5391 013d 7e39 413d c4de 13bd d9db 2c3d
00000110: 1db3 ff3c 48c7 68bc b332 8a3c 049d edbc
00000120: f0b4 fdbc 20c9 61bd 7879 853d c09c 46bd
00000130: ef2d db3c e70f 813d 1be8 06bd f9c5 06bd
00000140: dcf4 96bb 651d 8dbb 4c4c c1bc 778f 0c3d
00000150: 8f2c 563c 4f6f 77bc e034 8737 50c8 b3bc
00000160: e05d 0e3b 76f7 6fbd 9957 a0bc c259 53bd
00000170: 9302 853d f807 3bbd 9001 1d3d c0ca efba
00000180: 318f ad3c f88d 373d 96d8 0f3d 67a9 533d
00000190: 50b6 44bd f39f 51bd f53f 05bd 1d0c 7abd
000001a0: 590e 473d f6b5 21bd d4eb 273d 1cc0 fdbc
000001b0: ec20 e5bc b1f7 48bd d60a a5bb c959 54bd
000001c0: 4a49 34bd 8331 1fbd 40de 4cbd f877 3e3d
000001d0: 6a0a 6fba 28fa ef3c 6c65 833c c67a ac3c
000001e0: 7f73 5c3c 50a0 4b3c 06a0 3cbd 63bf 8dbc
000001f0: 7552 b3bb 97d7 07bd ff44 a5bb b6c6 1fbd
00000200: fb11 d23b d8a5 133d 36b7 6cbd 67e3 84bc
00000210: f34d 723c d9fb 39ba 945d 8f3d 6442 cd3c
00000220: 6283 4f3d 24a0 3cbd 9dd5 a9bc 1ff1 b13d
00000230: 1d5e 5cbc a066 5bbd f2c9 3dbd bf5b e1bc
00000240: 1ec4 72bb ab64 ba3c e050 a3bc f44e 0fbd
00000250: 2a76 003b 6ea1 2b3c 6fb4 dfbc d436 62bd
00000260: 8beb 843d d311 cfbc d75d 46bb c8e2 f4bc
00000270: 3832 e33c a483 60bc 2987 42bc f1e3 c4bc
00000280: dc16 84bc dd59 40bb 2134 413a b48a 3f3c
00000290: 026c 8e3d bcb8 603d 41bb 83bd 54c2 f4bc
000002a0: d87c 4dbd 30eb 1f3d a7e6 f53c 043c ffbc
000002b0: 127a 6cbd aa92 53bd 88d9 7cbc b558 063c
000002c0: 9aff 0c3d 07ce e7bc 08e4 333d ccd5 13ba
000002d0: 8df8 893d d30e 7d3d ff56 c93c 46d3 c6bc
000002e0: 64e4 5b3d 64e2 76bd 4a56 11bd b621 223c
000002f0: 3a45 7fbd 7fe1 b43d 1a37 ab3c 5a8d fabb
00000300: bccd ef3c fd00 1ebd c2f0 e8bc 1980 183d
00000310: d35b 863c 27d4 1abd 0c33 713c 2f47 113d
00000320: e3ca dbbc a7c9 b03c fbf2 6d3d 2821 51bc
00000330: 5ed2 00bd 978e ec3c 36ee 353b d1cd b4bc
00000340: 628a 203d 3499 28bd a834 2bbd 1096 75bc
00000350: 7899 963c 29bd e43c 51d9 803a f477 25bd
00000360: bac7 e339 bb4a 4d3d 3f48 3c3c ca9d 013c
00000370: c685 75bd 19bd debc 04d9 e3bc dc28 96ba
00000380: 4ffd 213d 9930 3f3c cee8 7ebd 40af 59bb
00000390: 1432 a83c 4eae 01bb 6ca9 07bd d60d 143d
000003a0: e5de 3dbc 65ec d1bc 72d2 46bc d4ad 82bd
000003b0: 610c a1ba 2adb 48bc 297c d139 1f80 e13c
000003c0: 6269 ea3c ad1b 85bc 7d00 2abd 2fb0 5e3d
000003d0: 60d4 a63d fad8 6a3c 2373 52bd e4d3 9b3c
000003e0: 527a 25bd 3bec 3e3d 78c6 15bc 2982 b83d
000003f0: 1a0f 30bc 3ced 16bd 2680 5a3c ac78 88bc

linear4.weight f4 [3, 256]
0.035976212 0.01786475 0.0038601721 -0.053378608 0.03865939 0.047204945 -0.020631718 -0.076214366
0.0056698075 0.029710125 -0.052543968 0.024771005 0.000449651 -0.03644412 0.006625682 0.029511932
-0.0065855044 0.033052977 -0.011430852 -0.04530056 -0.018988192 0.011718601 0.016535833 -0.051555086
0.049249656 -0.0825532 0.049932603 0.0038942103 0.009707749 0.031468593 -0.05382406 0.0013288632
-0.055724237 -0.008593118 0.03281478 -0.048872285 0.030558158 0.046124075 -0.05466021 -0.012639463
-0.032038238 -0.022689529 -0.056048464 -0.052916534 -0.05731909 0.018245764 -0.03456663 -0.057210214
0.023160446 -0.053492557 0.022719368 0.02865912 -0.05364505 0.03858509 -0.04303232 0.025070786
-0.046956893 -0.021894865 -0.044740677 0.03736369 0.017756384 -0.047824822 -0.07154546 -0.04801417
-0.08427009 0.033303242 0.022241786 0.0056611756 -0.082207195 0.056589305 0.06105957 -0.017434523
-0.062073793 -0.018856198 -0.08222713 -0.03710874 -0.033374604 0.019163823 -0.05372366 0.05530858
0.018721417 -0.048930347 -0.0008171648 0.018228862 0.0347695 0.036859572 -0.012912686 -0.035380818
-0.02016519 -0.013550393 -0.036814373 0.0036567354 -0.029436909 0.026320793 -0.035101008 0.039533086
-0.07424417 -0.053511404 0.044012636 -0.08126448 0.016574249 -0.05495692 0.048038095 0.0047646686
-0.07542961 0.033182427 0.04282096 -0.07852889 0.0018842071 -0.012528549 -0.012797024 0.025423162
0.04612934 0.035886504 -0.0033412352 0.04664609 -0.013796635 -0.04663579 0.039209493 -0.05752551
-0.044038683 0.008166999 -0.0372215 -0.031670958 -0.014217444 -0.07078671 0.04364565 0.054251097
0.015400317 -0.07113285 0.045816906 0.021716349 0.038398795 -0.04263906 -0.0519347 0.009063551
-0.026339196 0.061208196 0.058691375 -0.041460987 0.00914672 0.04731314 -0.0788592 0.0004760474
-0.040908277 -0.031579897 0.0072684884 -0.025443435 0.0028755695 -0.021589892 0.048165545 -0.04879301
-0.076804765 -0.0047132573 -0.038405113 -0.051842704 0.043730363 -0.025142405 -0.064782456 0.015969574
0.03351842 0.032080933 -0.082693435 -0.04148656 -0.06600972 -0.011707537 0.025325986 -0.04704321
-0.01614894 0.018052032 -0.051013175 -0.010359667 -0.036583126 0.027028285 -0.008949511 -0.038803883
-0.047462884 0.062026717 0.033365525 -0.06687703 -0.069922514 -0.04880121 0.045450587 0.0043473905
-0.032615725 -0.045882367 -0.07227631 0.039251376 -0.0022791028 -0.033719275 0.027321644 -0.050847773
-0.043594196 -0.021272086 -0.030639531 -0.024550945 0.028672844 0.048577823 0.048113205 -0.027890924
0.03890092 0.02157882 -0.0061214385 -0.013187237 -0.059405144 0.020211613 -0.052118372 -0.07911906
0.03496277 0.0040788143 -0.037598222 0.0028024688 0.04348162 0.040488087 -0.012914515 0.044468604
-0.0799947 -0.037022226 0.05534154 0.0063207373 -0.014261745 0.053188525 -0.0019981936 0.020124527
-0.06426532 0.0018484362 -0.054003127 0.05480533 -0.075723276 0.00058515684 0.03456822 0.035892908
0.0039957985 -0.024685578 -0.004397467 0.0071704485 -0.0015042126 -0.07401198 0.060781427 0.02247784
-0.04066465 -0.030176416 -0.038827702 0.0005431206 -0.08104743 0.009073161 -0.020018905 0.02009572
0.036809742 -0.037734687 0.04404544 -0.05574519 0.028632954 -0.04511781 0.02119076 0.0008311798
00000000: cb5b 133d 1959 923c f1fa 7c3b 87a3 5abd
00000010: 4f59 1e3d f959 413d d903 a9bc 4716 9cbd
00000020: cbc9 b93b a662 f33c 5838 57bd 90ec ca3c
00000030: 23bf eb39 6e46 15bd 401c d93b 02c3 f13c
00000040: 37cb d7bb 8f62 073d 7848 3bbc 148d 39bd
00000050: 208d 9bbc 60ff 3f3c 2876 873c 6d2b 53bd
00000060: 02ba 493d a711 a9bd 2186 4c3d 0236 7f3b
00000070: 400d 1f3c 36e5 003d 9e76 5cbd 402d ae3a
00000080: 193f 64bd 26ca 0cbc ca68 063d 4e2e 48bd
00000090: 1a55 fa3c 99ec 3c3d 62e3 5fbd c015 4fbc
000000a0: 873a 03bd 64df b9bc 1393 65bd 02bf 58bd
000000b0: 6cc7 6abd 2478 953c bd95 0dbd 4255 6abd
000000c0: faba bd3c 031b 5bbd f81d ba3c 88c6 ea3c
000000d0: e9ba 5bbd 660b 1e3d a842 30bd 4061 cd3c
000000e0: df55 40bd dc5c b3bc 0042 37bd ab0a 193d
000000f0: d675 913c f6e3 43bd 6d86 92bd 82aa 44bd
00000100: cc95 acbd fb68 083d 6834 b63c 6281 b93b
00000110: 3f5c a8bd 30ca 673d 9a19 7a3d d8d2 8ebc
00000120: 1741 7ebd 5078 9abc b366 a8bd 56ff 17bd
00000130: cfb3 08bd 73fd 9c3c 570d 5cbd 408b 623d
00000140: a85d 993c 306b 48bd 0037 56ba b254 953c
00000150: 776a 0e3d 10fa 163d bb8f 53bc 7aeb 10bd
00000160: 7831 a5bc 7802 5ebc abca 16bd d7a5 6f3b
00000170: ac25 f1bc b49e d73c 13c6 0fbd 72ed 213d
00000180: 540d 98bd c62e 5bbd 9846 343d fe6d a6bd
00000190: b8c6 873c 821a 61bd 98c3 443d f020 9c3b
000001a0: d77a 9abd 4cea 073d 0865 2f3d c1d3 a0bd
000001b0: 80f7 f63a 8b44 4dbc 9caa 51bc 3c44 d03c
000001c0: 1ef2 3c3d bafd 123d a0f8 5abb f80f 3f3d
000001d0: 480b 62bc 2c05 3fbd 229a 203d df9f 6bbd
000001e0: e861 34bd e0ce 053c 9275 18bd 68b9 01bd
000001f0: 48f0 68bc 9ff8 90bd c8c5 323d 6636 5e3d
00000200: 9c51 7c3c 1aae 91bd 82aa 3b3d 7ce6 b13c
00000210: 0e48 1d3d 4ca6 2ebd 7bb9 54bd 4a7f 143c
00000220: 4cc5 d7bc 72b5 7a3d 5e66 703d ffd2 29bd
00000230: 20dc 153c 6ccb 413d ef80 a1bd 0096 f939
00000240: 708f 27bd ec59 01bd 802c ee3b c06e d0bc
00000250: 0d74 3c3b 49dd b0bc 3c49 453d 2edb 47bd
00000260: d14b 9dbd ab71 9abb ae4e 1dbd 0459 54bd
00000270: 9c1e 333d 72f7 cdbc aaac 84bd a0d2 823c
00000280: 9c4a 093d 4c67 033d 2d5b a9bd d0ed 29bd
00000290: 1b30 87bd f8d0 3fbc 7178 cf3c 62b0 40bd
000002a0: c84a 84bc dbe1 933c 31f3 50bd 98bb 29bc
000002b0: 30d8 15bd 6c6a dd3c f8a0 12bc d2f0 1ebd
000002c0: 7168 42bd ba0f 7e3d 4aaa 083d d3f6 88bd
000002d0: 8933 8fbd c7e3 47bd 652a 3a3d 8e74 8e3b
000002e0: 1198 05bd 26ef 3bbd 9a05 94bd 0dc6 203d
000002f0: 005d 15bb 391d 0abd a4d1 df3c c145 50bd
00000300: d48f 32bd cc42 aebc c1ff fabc 101f c9bc
00000310: 50e3 ea3c 8af9 463d 5a12 453d 827b e4bc
00000320: 9256 1f3d 11c6 b03c 5996 c8bb 480f 58bc
00000330: cf52 73bd d392 a53c 137a 55bd 2c09 a2bd
00000340: 1f35 0f3d 93a7 853b 9800 1abd a0a9 373b
00000350: c819 323d d6d6 253d 6797 53bc b624 363d
00000360: 43d4 a3bd 9ea4 17bd d0ad 623d 301e cf3b
00000370: 18aa 69bc 36dc 593d 20f4 02bb 31dc a43c
00000380: 899d 83bd 3a47 f23a 6232 5dbd 8e7b 603d
00000390: ce14 9bbd 3665 193a 6897 0d3d 7104 133d
000003a0: 30ef 823b 6939 cabc a018 90bb 15f6 ea3b
000003b0: 0029 c5ba 9893 97bd f2f5 783d 7223 b83c
000003c0: fa8f 26bd 8834 f7bc cc09 1fbd 3560 0e3a
000003d0: 32fc a5bd 98a7 143c b0fe a3bc c89f a43c
000003e0: d0c5 163d b08f 1abd fe68 343d 1155 64bd
000003f0: a88f ea3c 74cd 38bd 3f98 ad3c 88e3 593a

linear4.bias f4 [3]
-0.027620766 0.0098717045 0.02333903
00000000: f244 e2bc eebc 213c 7e31 bf3c
