model/model.pth (torch, 17216 bytes, 4 tensors)

linear1.weight f4 [256, 11]
-0.21246049 -0.22381315 0.16563605 -0.14000477 -0.26742458 -0.27333295 0.018078022 0.22139113
0.28207996 -0.10234948 0.22246808 0.24083145 -0.047963608 -0.1268733 -0.16304798 -0.29955906
-0.26808318 -0.29760548 -0.28479034 0.049095593 -0.03098297 -0.17332727 0.015158509 -0.08016778
0.010577868 0.030937681 0.1072173 0.20738798 0.28937536 0.09477961 -0.14798099 -0.10083452
0.17626527 -0.27227458 0.15425666 0.23312514 -0.14958756 0.0401816 -0.09516975 -0.1610424
-0.11888351 0.019282244 0.1323854 0.19483924 -0.119966276 -0.2744425 0.2501174 0.14184839
-0.052224286 -0.1377486 0.06923204 0.06181981 0.16798308 0.0799263 0.06906226 -0.22057669
0.27346617 0.037217923 -0.2010155 0.2876595 -0.24495432 -0.23225999 -0.08071996 -0.29131752
0.011169597 -0.20998693 -0.28520867 -0.0055763335 0.037447557 0.043285068 0.2633062 0.08367529
0.27954 0.21610354 0.106805414 0.18561625 -0.05196757 -0.29760122 0.23408614 0.083594106
-0.10015605 -0.2976713 -0.078385726 0.005223122 -0.2916312 -0.09179557 0.017517373 0.0068033542
0.01455607 0.079955995 0.115717046 0.16210663 0.10049531 0.21923587 0.13975766 -0.061061773
0.096570164 -0.1960039 0.16387466 -0.23553894 -0.2260558 -0.134851 -0.15764064 -0.061771024
0.28757218 -0.15359664 -0.2123289 0.24941872 -0.016127897 0.24646877 0.14495401 0.22882748
0.07299803 -0.071714975 -0.099825874 0.16554342 -0.17547493 0.115793444 -0.05358426 -0.007673289
-0.16678551 0.116785124 -0.24186718 0.09310896 -0.119821295 0.24060398 -0.2969624 -0.20006858
-0.2040242 -0.22688177 -0.13629152 -0.26085728 -0.15290736 -0.05001994 0.23209067 -0.070911705
0.29178438 -0.18018442 0.2520025 0.078728385 0.28152952 0.11163148 0.21668316 0.1314965
0.27657145 0.2547392 0.19410396 0.22409254 -0.011905434 0.19060054 0.031327978 0.15670165
0.031994663 -0.22945814 0.022056896 0.04406678 -0.10147925 -0.15041527 -0.057127096 -0.21889074
0.035145048 0.2885286 -0.28727603 0.2395197 0.09658025 0.114763476 -0.047627073 0.081378475
-0.06121283 0.085729994 -0.25092512 -0.25380024 0.19156401 0.22845884 -0.0052323793 -0.28537843
0.16353178 -0.014549456 -0.012935543 -0.29924938 -0.23322903 0.15989628 -0.04770874 0.21655539
0.1287197 -0.038956396 0.23533762 -0.23884802 -0.16369154 -0.25341612 0.14844902 0.001666087
-0.05491405 -0.04942381 -0.006027306 0.23510379 0.20435746 0.30443802 -0.19991823 0.13783252
0.26335818 -0.2817179 0.25618315 -0.048564076 -0.07895117 -0.13206895 0.07155915 -0.044582404
0.3007165 -0.12975475 0.07205833 -0.19001019 -0.019509412 -0.043031342 -0.091088794 -0.119145274
0.19306085 -0.036972035 -0.09945216 -0.010561414 -0.09702753 0.10796336 -0.21781465 0.22854938
-0.27260882 -0.028176004 -0.14919834 -0.078948624 0.21398288 -0.16225429 -0.22534768 0.22355899
-0.03951608 0.058550496 -0.2298099 -0.2635912 -0.017472735 -0.27855918 -0.28322038 0.06168032
0.15580603 0.100745976 -0.10515282 -0.0016604926 0.022434276 0.24601308 -0.19594276 0.22133334
-0.09676605 -0.23204027 -0.29869583 0.28040478 0.13549984 0.10130562 -0.05862702 -0.09498137
00000000: 3e8f 59be 462f 65be 7f9c 293e 695d 0fbe
00000010: e0eb 88be 4cf2 8bbe 5c18 943c 5bb4 623e
00000020: c96c 903e 9b9c d1bd acce 633e 859c 763e
00000030: 7d75 44bd 13eb 01be 0df6 26be ce5f 99be
00000040: 3342 89be bf5f 98be 0ad0 91be 7618 493d
00000050: ffcf fdbc b47c 31be 655b 783c 012f a4bd
00000060: cb4e 2d3c 0571 fd3c be94 db3d 845d 543e
00000070: 0229 943e d01b c23d 5488 17be 5482 cebd
00000080: e27e 343e 9367 8bbe 75f5 1d3e 5bb8 6e3e
00000090: 7b2d 19be 7695 243d 5ce8 c2bd 4de8 24be
000000a0: 3379 f3bd ccf5 9d3c 0a90 073e f083 473e
000000b0: e1b0 f5bd ba83 8cbe 630f 803e b440 113e
000000c0: 22e9 55bd f80d 0dbe 87c9 8d3d c536 7d3d
000000d0: c203 2c3e 66b0 a33d 8470 8d3d dbde 61be
000000e0: c203 8c3e d271 183d 02d7 4dbe 1b48 933e
000000f0: 4ed5 7abe 90d5 6dbe 8250 a5bd 9227 95be
00000100: af00 373c d006 57be df06 92be adb9 b6bb
00000110: 9c62 193d af4b 313d 12d0 863e f35d ab3d
00000120: de1f 8f3e 3f4a 5d3e ccbc da3d 3012 3e3e
00000130: f2db 54bd 305f 98be 47b4 6f3e 6333 ab3d
00000140: 9d1e cdbd 5f68 98be b288 a0bd b926 ab3b
00000150: af50 95be 51ff bbbd 9880 8f3c acee de3b
00000160: 957c 6e3c f8bf a33d 0ffd ec3d 48ff 253e
00000170: 7cd0 cd3d 5e7f 603e a21c 0f3e e91b 7abd
00000180: 94c6 c53d 3fb5 48be c2ce 273e 1f31 71be
00000190: 2c7b 67be 6116 0abe 8c6c 21be 9d03 7dbd
000001a0: a93c 933e 7048 1dbe bf6c 59be 9f67 7f3e
000001b0: a71e 84bc 4f62 7c3e d36e 143e c051 6a3e
000001c0: fe7f 953d 4ddf 92bd 8271 ccbd 3784 293e
000001d0: b3af 33be 1d25 ed3d 2b7b 5bbd 3770 fbbb
000001e0: d2c9 2abe 0a2d ef3d 08ac 77be e9af be3d
000001f0: de64 f5bd e460 763e 750b 98be c7de 4cbe
00000200: b8eb 50be b253 68be 0190 0bbe 168f 85be
00000210: bf93 1cbe b5e1 4cbd 2da9 6d3e 283a 91bd
00000220: c364 953e 4482 38be 7906 813e 593c a13d
00000230: a324 903e 0c9f e43d 31e2 5d3e 05a7 063e
00000240: c69a 8d3e 2d6d 823e 30c3 463e 8478 653e
00000250: 020f 43bc ca2c 433e c451 003d 6676 203e
00000260: d60c 033d 13f7 6abe aab0 b43c 5e7f 343d
00000270: 5ad4 cfbd 7606 1abe 1afe 69bd e524 60be
00000280: 41f4 0f3d 05ba 933e d815 93be a744 753e
00000290: decb c53d 1d09 eb3d 9b14 43bd c2a9 a63d
000002a0: 4eba 7abd 3593 af3d 4279 80be 1bf2 81be
000002b0: 5b29 443e 1df1 693e 6174 abbb 1f1d 92be
000002c0: e074 273e d760 6ebc 9aef 53bc 3737 99be
000002d0: 97d3 6ebe dabb 233e 3d6a 43bd b2c0 5d3e
000002e0: 19cf 033e be90 1fbd 58fc 703e 9394 74be
000002f0: c19e 27be c2bf 81be 0503 183e 9a60 da3a
00000300: 8eed 60bd 9f70 4abd b580 c5bb 0cbf 703e
00000310: 1543 513e 4ddf 9b3e 5db7 4cbe f823 0d3e
00000320: e2d6 863e 543d 90be 702a 833e 20eb 46bd
00000330: 27b1 a1bd 153d 07be 9b8d 923d 0a9c 36bd
00000340: 83f7 993e 6ede 04be 5193 933d 0892 42be
00000350: 34d2 9fbc a241 30bd c38c babd 7002 f4bd
00000360: beb1 453e fd6f 17bd 93ad cbbd c809 2dbc
00000370: 5fb6 c6bd e51b dd3d ce0a 5fbe d908 6a3e
00000380: 6293 8bbe 5dd1 e6bc 73c7 18be d1af a1bd
00000390: 541e 5b3e fd25 26be 8bc1 66be a6ec 643e
000003a0: 9ddb 21bd a5d2 6f3d 4953 6bbe 6df5 86be
000003b0: fb22 8fbc 4f9f 8ebe 4302 91be 81a4 7c3d
000003c0: 9e8b 1f3e e853 ce3d 5d5a d7bd e3a4 d9ba
000003d0: 16c8 b73c daea 7b3e 38a5 48be 35a5 623e
000003e0: 472d c6bd f79b 6dbe a9ee 98be 3791 8f3e
000003f0: 78c0 0a3e 5279 cf3d e322 70bd 9885 c2bd

linear1.bias f4 [256]
0.037336048 -0.15137558 -0.23102073 -0.23385912 0.09089667 -0.27279648 -0.2531447 -0.11273026
-0.2605576 0.23182964 0.27681878 0.1371395 -0.2022915 0.16046323 -0.12415736 -0.24783935
-0.13107233 0.13226704 0.20617518 0.014843028 -0.27310878 0.044074062 0.032510567 -0.2621997
-0.18808131 0.095223665 0.14542551 -0.05499122 0.19020282 0.18285005 0.28088292 -0.09488337
0.25713533 0.12304237 -0.19812946 0.2584239 -0.15118784 0.22628954 -0.103007995 -0.029905483
0.25851837 -0.20940776 -0.13590907 -0.0063942247 0.076200694 0.027500834 0.22630753 0.27515247
0.06957518 -0.27299827 0.030288873 -0.1035992 -0.14399484 -0.25342846 0.1461704 0.23177662
-0.24702168 -0.023021659 -0.049749188 -0.07475649 0.24616772 -0.048824776 0.078655876 -0.18968317
-0.21945354 -0.15311922 -0.05774491 -0.07618765 -0.27667597 -0.14111999 0.14900288 0.25177318
0.21744277 -0.14250147 0.12120393 -0.19533375 -0.26883823 -0.12737569 0.0355489 -0.2819381
0.20742014 -0.11348261 0.07612847 -0.14548345 0.0584121 -0.0796884 -0.16447219 0.028657317
0.13331534 0.25334847 0.09719815 0.18912862 -0.06339649 -0.23395287 -0.052998424 -0.16138446
0.2784745 -0.16873999 0.21327268 -0.28049457 0.26974073 0.23418902 -0.14298606 0.17595789
-0.18852654 -0.20288841 -0.13774528 0.22434647 -0.073855996 0.016423617 0.2699841 -0.15216352
-0.17896317 -0.0008133678 0.13191137 0.09435859 0.08143532 0.15749207 0.044504296 -0.09854346
-0.15340787 0.0203375 0.11661477 -0.19442035 0.20079999 0.24301793 -0.1829087 -0.23819137
-0.28072318 0.14498165 0.162257 -0.15338808 0.024710765 -0.21059462 0.008902362 0.24665318
-0.17085832 -0.023095675 0.179603 -0.13162838 -0.19945908 0.20622057 -0.11194474 -0.020325951
-0.054825336 0.15803018 0.056632783 -0.07244226 0.09146898 -0.06864051 0.25632468 0.042969342
-0.21460941 -0.18848647 -0.2363238 -0.17518929 -0.1767005 -0.026802985 0.019232675 0.21462819
0.0118787475 0.21513662 0.014596795 0.060668755 -0.18182258 0.17721984 -0.13807938 0.015145914
-0.23590516 -0.18355682 -0.059821304 0.005230236 0.11619962 0.23635578 0.2875198 0.2837475
0.24312693 -0.056958053 -0.21364838 -0.1555289 0.28939074 0.2676807 0.12596484 -0.13246672
-0.2692737 0.29698512 0.2881788 -0.19237982 -0.15195043 0.25659937 -0.22192563 0.15262328
-0.024856571 0.11340674 0.22046925 -0.02930578 -0.15226457 -0.2575809 0.0879649 -0.18100505
-0.12754624 0.17349859 0.28453976 0.23276865 -0.21782717 -0.004603136 -0.04677252 0.0024978516
0.045827955 0.06661007 -0.15605223 0.04929511 -0.25812814 0.15719755 0.2366132 0.11570055
-0.061684545 0.19169521 -0.099416666 0.20807219 -0.037445217 -0.09221858 0.03400049 0.2728098
-0.058425706 -0.17582959 0.13059603 -0.021705534 -0.22565623 -0.06578732 -0.21822229 -0.19529438
0.2733722 -0.010283013 0.19289398 0.20651333 -0.018083021 0.057562497 0.14016935 -0.016849011
0.109868355 -0.23126057 0.2776783 0.06306264 -0.14230697 -0.102017336 0.054519866 -0.19990186
-0.27846318 0.17674457 0.09357895 -0.23744726 0.1501474 0.25395024 -0.13217877 -0.27830613
00000000: afed 183d 3302 1bbe b390 6cbe c478 6fbe
00000010: 0928 ba3d fbab 8bbe 2f9c 81be 1fdf e6bd
00000020: ce67 85be c064 6d3e 31bb 8d3e 4c6e 0c3e
00000030: 8125 4fbe 7950 243e 3746 febd 99c9 7dbe
00000040: d337 06be 0371 073e 961f 533e 2c30 733c
00000050: ead4 8bbe 0187 343d cd29 053d 0a3f 86be
00000060: 6398 40be a004 c33d 6dea 143e 793e 61bd
00000070: 87c4 423e 0b3d 3b3e e3cf 8f3e 3652 c2bd
00000080: 3ea7 833e a3fd fb3d 73e2 4abe 2350 843e
00000090: fcd0 1abe 72b8 673e dbf5 d2bd 58fc f4bc
000000a0: 855c 843e fd6e 56be bf2b 0bbe a586 d1bb
000000b0: 1c0f 9c3d 6e49 e13c 29bd 673e c9e0 8c3e
000000c0: 6f7d 8e3d 6ec6 8bbe 5f20 f83c d12b d4bd
000000d0: 6273 13be 60c1 81be b1ad 153e da56 6d3e
000000e0: 40f3 7cbe eb97 bcbc cec5 4bbd ee19 99bd
000000f0: 6413 7c3e 7dfc 47bd 5516 a13d 4e3c 42be
00000100: 6eb8 60be 49cb 1cbe ed85 6cbd 4508 9cbd
00000110: 79a8 8dbe c281 10be 3694 183e 6ae8 803e
00000120: 51a9 5e3e e8eb 11be c439 f83d 9205 48be
00000130: 2aa5 89be c66e 02be b99b 113d 315a 90be
00000140: f265 543e 9269 e8bd 3ee9 9b3d 9df9 14be
00000150: 8741 6f3d ac33 a3bd 666b 28be c0c2 ea3c
00000160: d183 083e e4b6 813e d30f c73d efaa 413e
00000170: 05d6 81bd 5791 6fbe e014 59bd f841 25be
00000180: 3694 8e3e 2dca 2cbe 2764 5a3e fc9c 8fbe
00000190: 751b 8a3e 3fcf 6f3e f06a 12be 4e2e 343e
000001a0: 1a0d 41be fbc1 4fbe 190d 0dbe 15bb 653e
000001b0: d041 97bd d28a 863c 5b3b 8a3e c1d0 1bbe
000001c0: 1f42 37be 3038 55ba c613 073e 143f c13d
000001d0: 90c7 a63d 9a45 213e 234a 363d 27d1 c9bd
000001e0: f416 1dbe d49a a63c b9d3 ee3d 2116 47be
000001f0: 839e 4d3e b1d9 783e 6b4c 3bbe 70e8 73be
00000200: f3ba 8fbe 1276 143e b326 263e c411 1dbe
00000210: 3b6e ca3c 1ea6 57be 36db 113c a792 7c3e
00000220: 7cf5 2ebe 2433 bdbc d9e9 373e 97c9 06be
00000230: 003f 4cbe 7c2b 533e 4943 e5bd 9c82 a6bc
00000240: 8890 60bd aad2 213e c7f7 673d 9c5c 94bd
00000250: 1754 bb3d 6593 8cbd fd3c 833e 9f00 303d
00000260: 92c2 5bbe 9902 41be defe 71be d264 33be
00000270: faf0 34be ef91 dbbc d88d 9d3c 7ec7 5b3e
00000280: 149f 423c c64c 5c3e 6527 6f3c cd7f 783d
00000290: b32f 3abe 1e79 353e ae64 0dbe 9126 783c
000002a0: 1f91 71be 52f6 3bbe 2f07 75bd 6662 ab3b
000002b0: 11fa ed3d 4007 723e cc35 933e 5a47 913e
000002c0: 44f6 783e d94c 69bd a4c6 5abe f842 1fbe
000002d0: 062b 943e 720d 893e edfc 003e 5ba5 07be
000002e0: 3ede 89be 6f0e 983e 2c8c 933e 37ff 44be
000002f0: e598 1bbe fe60 833e 7940 63be 4749 1c3e
00000300: 02a0 cbbc cb41 e83d b1c2 613e ad12 f0bc
00000310: 3eeb 1bbe a5e1 83be f126 b43d 6359 39be
00000320: 7b9b 02be 9da9 313e 32af 913e e85a 6e3e
00000330: 160e 5fbe e7d5 96bb 8b94 3fbd ffb2 233b
00000340: 18b6 3b3d dc6a 883d 28cc 1fbe abe9 493d
00000350: 5f29 84be 65f8 203e bb4a 723e 69f4 ec3d
00000360: efa8 7cbd c04b 443e f79a cbbd e010 553e
00000370: 2860 19bd 18dd bcbd 1944 0b3d baad 8b3e
00000380: cb4f 6fbd ac0c 34be f7ba 053e cecf b1bc
00000390: 6d12 67be 81bb 86bd aa75 5fbe 40fb 47be
000003a0: 71f7 8b3e 157a 28bc 0086 453e 3b78 533e
000003b0: d822 94bc a7c6 6b3d 8e88 0f3e f006 8abc
000003c0: a902 e13d 92cf 6cbe da2b 8e3e fc26 813d
000003d0: ebb8 11be 77ee d0bd 3950 5f3d 13b3 4cbe
000003e0: ba92 8ebe 87fc 343e 52a6 bf3d 6025 73be
000003f0: 3dc0 193e c405 823e df59 07be 247e 8ebe

linear2.weight f4 [3, 256]
-0.008668104 -0.011255592 0.018829443 -0.031965017 -0.0044268332 0.036841072 -0.007302866 0.0055401847
-0.030755498 -0.0060892 0.04775843 -0.0015095919 -0.03153777 0.0002554593 0.0010044823 0.014295806
0.049293566 -0.034171354 -0.056673676 0.033053506 0.025059797 0.0045025307 -0.046665765 0.0510286
0.032413162 -0.025262054 0.04331895 0.027265878 -0.011867262 -0.059272505 -0.047793914 -0.013765678
-0.010445694 0.047541246 -0.06063418 -0.043925736 0.019979019 -0.04919214 -0.05965087 -0.023337437
-0.019800479 -0.0191629 0.011950288 0.010478251 0.046132244 -0.059286885 0.010850993 0.010901159
-0.025637835 0.05373552 -0.052197676 0.03643504 0.021293752 0.0017747432 0.01690135 -0.047501486
0.044510067 0.020206427 -0.035807364 0.040484227 0.019924039 -0.055462632 -0.041447006 -0.048712827
-0.000120192766 0.007861042 -0.028838424 -0.04072188 -0.05886729 0.019015923 -0.044070713 0.022459393
0.008301001 0.0518345 0.05493785 -0.020224229 0.033473734 0.027498374 0.034528807 -0.030582622
0.038276143 0.035296917 -0.008613177 0.04675532 -0.06385604 -0.039475247 0.01658972 0.05363866
0.020977698 0.048823845 0.0065669883 -0.0123147275 0.011343637 0.014740419 -0.031841233 -0.043297473
-0.045351718 0.020570278 0.002225306 0.030952925 0.051601626 0.02840495 -0.026652731 -0.0058774585
-0.03678983 0.037997276 0.013377059 0.04268834 -0.02557258 -0.02647841 0.029580334 0.011821334
0.027486602 -0.05367019 0.04965817 0.0064866925 -0.005866625 -0.008977432 0.02791575 -0.0063300696
-0.05134494 0.006363794 -0.053653687 -0.046253446 0.040534142 0.0128612 0.004870884 0.004158698
0.031765483 -0.060381453 -0.039476242 0.023338366 0.04718228 0.04803655 -0.004468471 -0.019217506
0.029882964 0.039411575 -0.03578761 -0.056909457 -0.053385437 -0.014408599 -0.04141777 -0.028715385
0.020234816 -0.032758128 0.05178798 0.050109297 0.047162727 0.048652485 -0.0010129688 0.044595428
-0.027676426 0.03500761 -0.0068147033 -0.05815893 -0.011424919 0.06041499 0.035130113 -0.045184057
-0.04567912 -0.0062087663 0.0071004853 0.049254306 -0.015504585 0.032417327 -0.010144885 -0.022470443
0.031966653 0.0049326248 -0.039854303 0.020833865 -0.06090591 -0.05208449 -0.045902893 -0.0046356455
0.042757757 -0.00034223314 0.02623564 0.042404518 0.04700592 0.0093652755 -0.035921346 0.053827167
0.029170338 0.02071317 -0.0012239905 0.028482582 0.051376157 -0.013314901 0.03658328 0.012634988
-0.03825967 -0.020647746 0.03016763 0.058635414 -0.057982653 0.04496528 0.030904626 -0.025718808
0.055897906 0.01750467 0.0079456745 0.011853347 -0.00304359 0.047482975 -0.0101114735 -0.03311341
0.020805936 0.04649258 0.045172326 -0.056301553 0.06010831 -0.055154406 0.008611551 0.033864446
0.034705717 0.035921317 -0.03510873 -0.05746383 -0.051977307 0.056117497 0.038560994 0.05442382
-0.02788984 0.033018388 0.052874643 0.03379016 0.028423794 -0.061137155 -0.04140903 0.021020375
0.026122808 -0.021711318 -9.8641205e-05 -0.027864939 0.028424876 0.0049089426 -0.047316447 0.051973913
0.022503907 -0.051086903 -0.014597004 -0.031210368 0.0036868528 -0.047910683 -0.0028011128 -0.048911653
-0.04687821 0.023110855 0.036502935 -0.05111274 0.017000772 0.054383848 0.009444427 -0.03865312
00000000: aa04 0ebc 6069 38bc 3440 9a3c c0ed 02bd
00000010: f80e 91bb aae6 163d e14c efbb 708a b53b
00000020: f4f2 fbbc e987 c7bb 589e 433d 80dd c5ba
00000030: c02d 01bd 2bef 8539 d5a8 833a f538 6a3c
00000040: 0de8 493d 43f7 0bbd a822 68bd 1d63 073d
00000050: 344a cd3c f789 933b 9a24 3fbd 5e03 513d
00000060: aac3 043d 5ef2 cebc 366f 313d b15c df3c
00000070: e86e 42bc bac7 72bd 8dc3 43bd 7089 61bc
00000080: 6b24 2bbc 9cba 423d 8c5b 78bd 79eb 33bd
00000090: 0aab a33c b37d 49bd 7854 74bd 272e bfbc
000000a0: 9d34 a2bc 84fb 9cbc 24cb 433c f8ac 2b3c
000000b0: 2af5 3c3d ced6 72bd 5dc8 313c c69a 323c
000000c0: 7006 d2bc c719 5c3d 3bcd 55bd e93c 153d
000000d0: 3c70 ae3c 809e e83a b374 8a3c eb90 42bd
000000e0: 3050 363d f387 a53c beaa 12bd cad2 253d
000000f0: bd37 a33c c92c 63bd 56c4 29bd 1a87 47bd
00000100: 0010 fcb8 9acb 003c 8f3e ecbc fccb 26bd
00000110: d41e 71bd 48c7 9b3c 7e83 34bd c3fc b73c
00000120: ec00 083c 6a50 543d 8306 613d 48ad a5bc
00000130: c11b 093d 4544 e13c 146e 0d3d 6888 fabc
00000140: 72c7 1c3d 8093 103d 481e 0dbc 8282 3f3d
00000150: f5c6 82bd ccb0 21bd 2ae7 873c 36b4 5b3d
00000160: 6cd9 ab3c 83fb 473d e42f d73b b6c3 49bc
00000170: a9da 393c cc81 713c f46b 02bd b158 31bd
00000180: b9c2 39bd 0083 a83c 70d6 113b fd90 fd3c
00000190: 3a5c 533d 7fb1 e83c d456 dabc b297 c0bb
000001a0: efb0 16bd 08a3 1b3d 742b 5b3c f8d9 2e3d
000001b0: 967d d1bc 40e9 d8bc 7552 f23c 45ae 413c
000001c0: 952b e13c 46d5 5bbd 5e66 4b3d 528e d43b
000001d0: d13c c0bb 1416 13bc 92af e43c 796c cfbb
000001e0: 124f 52bd 6087 d03b f8c3 5bbd 4174 3dbd
000001f0: 2107 263d c8b7 523c f09b 9f3b b045 883b
00000200: 861c 023d 8b52 77bd d7b1 21bd 1a30 bf3c
00000210: 3542 413d f9c1 443d 406c 92bb 086e 9dbc
00000220: 1ecd f43c 086e 213d 0796 12bd e419 69bd
00000230: b0aa 5abd 0b12 6cbc aea5 29bd 873c ebbc
00000240: 7cc3 a53c 632d 06bd a21f 543d 683f 4d3d
00000250: b42d 413d d447 473d 98c5 84ba b2a9 363d
00000260: acb9 e2bc 2464 0f3d e04d dfbb 0f38 6ebd
00000270: 952f 3bbc b575 773d 98e4 0f3d eb12 39bd
00000280: 071a 3bbd e872 cbbb 30ab e83b e2be 493d
00000290: f106 7ebc 08c8 043d bb36 26bc ef13 b8bc
000002a0: 77ef 023d dba1 a13b 443e 23bd c8ab aa3c
000002b0: 7a78 79bd 8c56 55bd ac04 3cbd 9de6 97bb
000002c0: c222 2f3d c16d b3b9 20ec d63c 5cb0 2d3d
000002d0: 4889 403d d070 193c 4322 13bd e079 5c3d
000002e0: a2f6 ee3c aaae a93c 4e6e a0ba 4e54 e93c
000002f0: ce6f 523d be26 5abc 59d8 153d fb02 4f3c
00000300: 2cb6 1cbd 7625 a9bc 1b22 f73c b02b 703d
00000310: 387f 6dbd 832d 383d b32b fd3c 40b0 d2bc
00000320: 34f5 643d f465 8f3c 932e 023c 8a34 423c
00000330: f876 47bb 827d 423d 98aa 25bc eda1 07bd
00000340: 3671 aa3c 016f 3e3d 9e06 393d 759c 66bd
00000350: 2234 763d 96e9 61bd 7617 0d3c 72b5 0a3d
00000360: 9527 0e3d 3b22 133d 2cce 0fbd 315f 6bbd
00000370: 28e6 54bd 76db 653d 22f2 1d3d 83eb 5e3d
00000380: 3c79 e4bc 4a3e 073d 1593 583d 8d67 0a3d
00000390: 04d9 e83c f46a 7abd 849c 29bd ec32 ac3c
000003a0: 80ff d53c efdb b1bc 98dd ceb8 0345 e4bc
000003b0: 49db e83c 32db a03b e4ce 41bd 99e2 543d
000003c0: 1d5a b83c 8040 51bd 4628 6fbc e3ac ffbc
000003d0: 209f 713b fe3d 44bd e092 37bb 9657 48bd
000003e0: 5e03 40bd fa52 bd3c 1a84 153d 985b 51bd
000003f0: 3445 8b3c 99c1 5e3d ccbc 1a3c bc52 1ebd

linear2.bias f4 [3]
0.017932177 0.027008956 0.010509014
00000000: 80e6 923c e341 dd3c 002e 2c3c
