model/model.pth (torch, 17216 bytes, 4 tensors)

linear1.weight f4 [256, 11]
00000000: 4913 643e 7254 1b3d 9b69 30be 0086 253e
00000010: e21a 06be 6538 febc 33c3 7cbd ba34 87be
00000020: 223e 863d c808 263e 2230 243e 7f35 ddbd
00000030: 8e08 983e 8cc7 4abe 95d1 583d 6afc 893e
00000040: f8af d43d 781e d63c 8374 01be 9413 32be
00000050: f134 193e 58fd 7e3e bdac 3e3e e5f0 b7bd
00000060: 12c9 ac3c 4111 2dbe 22bf 8f3e f991 8ebe
00000070: 213c 09be 0fcb 80be 316f e03d 0bbd 823e
00000080: b18e 90bd 5d3c 6cbe 1ede 85be 2c0d 243e
00000090: b29b 11bc f0be 443e aaf0 973d 1d28 a8bd
000000a0: 9ab2 a3bd 429f adbd 6f85 933c 96fc 463e
000000b0: 7716 f83d a46c 4e3e bc1e 1e3e 5c3d 233e
000000c0: 5a6f 863d 355e 8c3e 2935 513c 88fd 96bd
000000d0: 84a4 c03d 5c40 03be 8c71 2b3c 28b9 3cbe
000000e0: 152a 013d f7fa 9e3d 93e6 443e 7f55 8a3e
000000f0: c9a6 6b3d 0d06 be3d 85dc f53b 6e27 a93d
00000100: 82a9 d1bd ab03 853e dfbb b1bb 402b 44be
00000110: bdda 3e3e 415c f3bd ab81 e73d 1a3c 8c3e
00000120: 8c2a 7abe d59f 893d f4ea 443e f2f3 e43d
00000130: aec8 63bc 52e2 b23d 4014 6bbe 891f 323e
00000140: 5bf7 163e 76d8 67bd 1f63 7d3e bb2a b3bc
00000150: bfb4 783e 9e47 5a3e 4992 b9bd 6c71 2e3c
00000160: 1083 d1bd 689c ff3c 89d1 dd3d fc70 82be
00000170: 99ee 91be 36bd 443e 251c 06be fa96 f2ba
00000180: 4bd5 8fbe 041e 46be d742 73be 4a9e 29be
00000190: b327 88be cf6a 043e c58c 52be 73ea 61bd
000001a0: f284 8bbe 6687 28be 03f1 9bbe cb17 64bd
000001b0: a56e 563e a833 aebd 3c20 61bc 9bc6 03be
000001c0: de7f 8e3e 0930 27be 7be6 303e 3c93 79bd
000001d0: f3cd 383e 227b 89be b36a 4f3e 4d22 11be
000001e0: 650f 4cbe b1f4 cf3d 771b b93d 856d bcbc
000001f0: 6514 08be 38e0 a33d 6bb8 d5bd b11b 143d
00000200: 7866 b8bc f078 31bd fa23 31be 9d7a 10be
00000210: 4254 593e a133 d53d 5b6a 803c 7d98 523e
00000220: 4808 88be acb5 8d3e 113f 5d3e 2381 ddbc
00000230: 1a88 903e e7c1 8cbe e765 2cbd f51c 8e3e
00000240: f049 6abe 4870 17be 4862 f2bd c9bc cb3d
00000250: 9824 a43d 6c62 9bb9 3f07 84be 77fd 96be
00000260: ae34 38bd 38bd 53be f7e4 573e 8a7e 5a3e
00000270: c571 b0bd f337 82be 2d06 7cbd 8bad 3e3e
00000280: 6b81 763e a142 79be 39a3 d33b b6b7 00be
00000290: 8afb 2c3e c5a3 a9bd 7b97 7dbe c126 14be
000002a0: 3e1a 61be 106d 793e a4d3 703d b14d b6bb
000002b0: 6c1b 3d3e 196a a5bd 4256 37be bb5d 8e3d
000002c0: 96c5 6abe 5e44 dbbc a693 783e 3ac2 8bbe
000002d0: ab98 993e d3cf 54be bbac 6bbe 9778 72be
000002e0: 5a64 943e b645 773e d7a9 85be 879f 81bd
000002f0: b4b7 983e ae5c 863d dd3b e1bd 9489 653d
00000300: da83 8f3e 7bd7 8c3e 817f 9cbd 32ea 323e
00000310: b65d 85bd 6c6c 823d 11a4 b9bd c74c 80be
00000320: c2cd e5bd 0c35 25be 2d08 5fbe cd78 463e
00000330: b416 8e3e 1ce6 4d3e 08d3 813d 6975 863e
00000340: 35c8 783e 87e7 11bd c1f5 36bd bb3d 81be
00000350: ffe1 95be 5736 57be 3721 f33c 5db8 cd3d
00000360: 254a c3bd 4fd6 6a3d 8a39 4c3d c7dd 20be
00000370: bc85 a9bb d9f3 eebd 32a0 6d3e c892 863e
00000380: 10ec 85be 371d 923d 84a5 59be 0129 4dbd
00000390: ad49 10be 95b5 8bbe 8e2c ab3c 67e5 f9bc
000003a0: 4136 90be 0de8 bbbc f6ab 213d 7de3 283e
000003b0: d8d2 bcbd c79d 43bd 8eb1 ddbd 0fca e9bd
000003c0: 6ef9 553e ca7f d8bc 562a f33b 9a21 3a3e
000003d0: 2f7c ee3d ee28 5bbc 9b36 873e 2350 00be
000003e0: 5766 633d 77f6 4ebe 19a8 853c 09b9 833e
000003f0: 94a0 41be 0797 5abe 7ba4 1c3d aca7 083e
0.22272982 0.03792233 -0.17227785 0.16164398 -0.13096192 -0.03103275 -0.061709594 -0.26407415
0.0655482 0.16214287 0.16033986 -0.10801219 0.29694027 -0.19802684 0.052934248 0.2695039
0.10385126 0.026137576 -0.12642102 -0.17390281 0.14961602 0.2490133 0.18620582 -0.08981494
0.021091972 -0.16901113 0.2807551 -0.27845743 -0.13401844 -0.2515492 0.10958708 0.25534853
-0.07058466 -0.23069902 -0.26146024 0.1602065 -0.008887218 0.19213462 0.0741895 -0.08210776
-0.0799305 -0.08477642 0.018007962 0.19432291 0.1211366 0.2015863 0.15441412 0.15941375
0.065642074 0.27415624 0.012769022 -0.07372576 0.09406379 -0.1281752 0.010464083 -0.18430007
0.031534273 0.077627115 0.19228582 0.27018353 0.057532106 0.09278498 0.0075030946 0.08259474
-0.10237409 0.2597936 -0.0054240073 -0.19157124 0.1863813 -0.118828304 0.11304029 0.27389604
-0.24430293 0.06719939 0.19230253 0.111793414 -0.013902826 0.087345734 -0.22956944 0.17394842
0.14742796 -0.056602918 0.24744843 -0.021870961 0.24287699 0.21316382 -0.09061105 0.010647159
-0.10230076 0.03120251 0.10830981 -0.25476825 -0.28502348 0.19212803 -0.13096674 -0.0018508129
-0.28092417 -0.19347388 -0.23755966 -0.16564289 -0.26592788 0.12931369 -0.20561512 -0.05515523
-0.27249867 -0.164579 -0.30457315 -0.055686753 0.20940645 -0.085059464 -0.013740595 -0.1286873
0.2783193 -0.16326918 0.17275421 -0.06093143 0.18047313 -0.26851755 0.20255546 -0.14173241
-0.19927748 0.10154093 0.09038442 -0.023001442 -0.1328903 0.08001751 -0.104355656 0.03615922
-0.022509798 -0.043328226 -0.1729888 -0.14109273 0.21223548 0.10410238 0.015675714 0.20565982
-0.26568818 0.27677667 0.21606089 -0.027039116 0.28228837 -0.27491686 -0.04208937 0.27756467
-0.22879767 -0.14788926 -0.11835152 0.09948117 0.08014792 -0.00029637234 -0.25786778 -0.29490253
-0.044972114 -0.2067765 0.21083437 0.21337333 -0.0861545 -0.2543331 -0.061529327 0.18620889
0.24072807 -0.24341823 0.0064586666 -0.1257008 0.1689283 -0.0828319 -0.24764816 -0.14467908
-0.21982667 0.2435801 0.058795586 -0.0055634608 0.18467492 -0.08076877 -0.17903998 0.069514714
-0.22926936 -0.026765998 0.24275073 -0.2729662 0.2999929 -0.20782404 -0.2301511 -0.23678814
0.28982812 0.24147686 -0.2610614 -0.063292556 0.29827654 0.06560646 -0.10997746 0.056039408
0.28030282 0.2750815 -0.07641507 0.17472151 -0.065120146 0.06368336 -0.09064496 -0.25058576
-0.11220886 -0.16133517 -0.21780463 0.1938202 0.27751696 0.20107311 0.06339079 0.26261452
0.24295123 -0.035621192 -0.044667963 -0.2524241 -0.29273984 -0.21016823 0.029678924 0.1004493
-0.09535626 0.057333287 0.04985956 -0.15709601 -0.005173413 -0.11667604 0.23205641 0.2628386
-0.26156664 0.071344785 -0.21254545 -0.050087932 -0.14090605 -0.27286974 0.020895269 -0.030504895
-0.28166392 -0.022937799 0.039470635 0.1649303 -0.09219903 -0.04775789 -0.108248815 -0.11415493
0.20895931 -0.026428122 0.0074208183 0.1817688 0.1164478 -0.013376458 0.26408848 -0.1253057
0.05551752 -0.20211206 0.016315507 0.25727108 -0.18908912 -0.21346675 0.0382428 0.13345212

linear1.bias f4 [256]
00000000: 3ac4 3fbe c8e4 0ebd 015a 35be ca39 d3bd
00000010: b6d4 45be 2afa 31bd 1acc 63be 6e2a 48be
00000020: 3ab9 d4bd 698e 3f3e 8aef 6bbe 7036 1fbd
00000030: d1d0 bbbb 32ff 943e ae63 843e 198d 963c
00000040: 6da4 8f3e c51b 59be 616e 11be 09b6 2abe
00000050: babf 1f3e 8e01 963e a6f2 4ebe 5ca4 c23c
00000060: fd43 cdbc 07f9 8b3d 8b41 533e 73c1 4fbe
00000070: b1ed bc3d a3ec d5bc a0e6 263d 1e40 943e
00000080: 78e5 803e 8a5c 083e 4801 51be 77f3 8cba
00000090: 3716 d93d 5c1d 773c 239f 803e 44bf 4fbe
000000a0: 4de8 773d d722 6a3e a277 73be c751 83bd
000000b0: afcb d3bc 4a12 c73d bd51 4b3e 7446 ff3c
000000c0: 7bc2 e53d 821d 7c3e 2669 163e 4b45 f8bd
000000d0: 8620 8cbe 3aa0 60be 57a9 e0bd d288 1b3e
000000e0: 9826 55be e6e6 083c d73b 68be 5ccc 8fbe
000000f0: 1c0c ddbd 58ea 17be e8f3 873d e898 603e
00000100: af32 78be 76e9 153e b7d8 623e 7c93 32be
00000110: b535 cebd f8c1 86be c315 8c3c 407d 63be
00000120: c48d ba3d fe86 94be 650e 5ebe 36e9 893e
00000130: 10ed 87be c6b9 5fbd 2708 8a3e 5668 633e
00000140: e931 353e 74df 8838 aa6f 6dbd f9db 553e
00000150: 73a0 0a3d d316 89be 91cc 88be ba16 9cbd
00000160: 45fe 543e d96d fe3a 9727 a53d 1d56 673e
00000170: b731 063e ba33 96be 753a 323e 1a24 693e
00000180: 1edc 9a3d 6b6f 92bd 690d 4ebc 8e44 d7bd
00000190: 5140 e93d 8916 93be 0ab2 353d 0fa9 b23d
000001a0: 1880 48bb a611 953e bec2 71bc d094 803e
000001b0: 381e 933e c69e 8abe 5931 693e 8e23 893d
000001c0: 2891 253d b3d7 91be b249 aa3d da91 703e
000001d0: 22a6 0abe 58d8 533c 3b74 22bd e312 623e
000001e0: 84d5 303e 6e52 793e 5b45 38be ec43 373e
000001f0: d6ad 9ebd bf19 883e c519 a13d d4a7 0e3c
00000200: fd3c 71bd 9d7d 183e 534a 02be da77 953e
00000210: f134 943d c4f1 2abe f686 a3bd e7c1 153e
00000220: 31c1 dc3c 0c7e 743e 85da 893b 78bb c03d
00000230: 049b 903e 896f b23d 15ee ef3d ec3d 83bd
00000240: cd13 883d dce3 033d c892 99be 65b0 f6bd
00000250: 7927 30be 3113 d9bc 2f0e 8c3e edd6 223e
00000260: dc47 023b ab0a a0bd 3b40 0dbe 392c 4b3e
00000270: 9d7f 5cbc ca5b 78bd eb30 953e f0c1 4a3e
00000280: 83db 4ebe d738 6dbd 9439 90be 20d4 febd
00000290: c149 8a3e 7633 06bc 2b10 80be fd39 a8bd
000002a0: 814e 343e 4d0f 37bd adb6 d93d 918d 883e
000002b0: a322 59be 5c27 bbbd 5422 763e 71f6 32be
000002c0: 4f7e 9b3c 87ee d33d 79f1 88be 36ba 7b3e
000002d0: 99ca 063e f94d 233e b674 313e 311f eb3d
000002e0: e210 003e 38ab b3bd 50ec ebbb 5d30 653e
000002f0: d803 5fbe 7823 10be 7a65 5cbe a66a 98bd
00000300: 0e6e 8f3d 65e5 79bd d1f2 3dbe 6c5d 473e
00000310: 8baf 513e 1b6f 83be 7f26 603c ffd2 c0bc
00000320: 04bf 9bbe 2129 6fbc 4406 9d3d 93e0 efbd
00000330: b193 943e 2553 5dbe b96d 653d 201a 033e
00000340: bcd6 0bbe 8cac 59be 68b4 373d 41d2 5c3e
00000350: dc4f e53d baec 873e 6245 223e a496 e3bd
00000360: fb15 0dbe 02ac 1c3e 23bc 67be 3993 423e
00000370: 0239 97bd 4256 233e 6281 a2bb 9223 b83b
00000380: f40d 3fbc ad22 2cbe d63b debd 5c25 963e
00000390: 9fe6 1b3e e01b f93d a3cf ca3d 3644 353e
000003a0: ebd5 1ebd e4a7 b8bd e1db c13d 856e 6fbd
000003b0: fd48 0bbe 1198 02be 6104 8d3e b28b 2dbd
000003c0: a12c 68bd 95d9 55be f08f 913d 33d9 853e
000003d0: dc1c 61be eb35 eebd 3409 043e eaef 51be
000003e0: 7f41 963e 559c 503e f7ae b13c 830b 093e
000003f0: ee33 113d 51f5 5abe b48a 80be da21 e73d
-0.18727198 -0.03488615 -0.17710115 -0.10313757 -0.19319424 -0.043451466 -0.22245827 -0.19547436
-0.10386892 0.18706669 -0.23040596 -0.038870275 -0.00573168 0.2910095 0.258573 0.018377827
0.28055134 -0.21202 -0.14202262 -0.16671003 0.15600482 0.2929806 -0.2020975 0.023760013
-0.025056833 0.068346076 0.20630471 -0.20288639 0.092250235 -0.026113814 0.040747285 0.28955168
0.2517507 0.13316551 -0.20410645 -0.001075371 0.1059994 0.015082683 0.25121412 -0.20287806
0.060524274 0.22864853 -0.23776105 -0.06412082 -0.02585396 0.09720285 0.198554 0.031161524
0.11218735 0.24620631 0.14688548 -0.121225916 -0.27368563 -0.21936122 -0.10969799 0.15188912
-0.20815504 0.008355832 -0.22679077 -0.280856 -0.10793325 -0.14835489 0.06638318 0.21933329
-0.24238084 0.1463984 0.22152983 -0.17439073 -0.100688376 -0.2631986 0.01710022 -0.22215748
0.09109071 -0.2900924 -0.21685179 0.26935738 -0.26548052 -0.054620527 0.26959345 0.2220777
0.1769482 6.526607e-05 -0.05796782 0.20884694 0.033844423 -0.26775226 -0.26718572 -0.07621522
0.20800121 0.0019411399 0.08064192 0.22591443 0.13104902 -0.2933634 0.17405112 0.22767678
0.07561515 -0.071501575 -0.012576439 -0.10511123 0.113892205 -0.2872813 0.044359244 0.087236516
-0.0030593928 0.29115027 -0.014755903 0.25113535 0.28733993 -0.2707426 0.22772731 0.06696235
0.040421635 -0.28484878 0.083148375 0.23493138 -0.13539937 0.012929998 -0.039661627 0.22077517
0.1726895 0.2434785 -0.17995207 0.17897004 -0.07748 0.26582143 0.07866243 0.0087070055
-0.058896054 0.14891668 -0.12723665 0.29193002 0.0723666 -0.16693789 -0.07984726 0.14624749
0.02694759 0.23876208 0.0042069578 0.09410757 0.28243268 0.0871268 0.117153324 -0.06408295
0.06644402 0.032199726 -0.29994798 -0.12045363 -0.17202558 -0.026498409 0.2735457 0.159023
0.0019879257 -0.07814535 -0.13794033 0.19841088 -0.01345816 -0.060634412 0.29138884 0.19800544
-0.20200925 -0.057915535 -0.2816893 -0.124428034 0.27009395 -0.00819098 -0.25012335 -0.082141854
0.17608072 -0.044692326 0.10630546 0.26670507 -0.21204619 -0.091383666 0.24036533 -0.17476822
0.018981127 0.1034823 -0.2674673 0.24582753 0.13163222 0.15947713 0.17329678 0.11480559
0.1250644 -0.08772892 -0.0071998015 0.2238173 -0.2177881 -0.1407603 -0.21523085 -0.074422166
0.07003413 -0.061009783 -0.18549658 0.19469231 0.2047712 -0.25670704 0.013681053 -0.02353811
-0.3041917 -0.014597208 0.07667211 -0.11712756 0.2901893 -0.21613748 0.056012843 0.12802935
-0.13656133 -0.21257228 0.044849783 0.2156458 0.111968726 0.26547796 0.1584678 -0.11112717
-0.13777916 0.15299991 -0.22630362 0.19001473 -0.0738392 0.15950873 -0.0049592713 0.0056194747
-0.0116610415 -0.16810103 -0.108512565 0.29325378 0.15224694 0.1216352 0.09902885 0.17701802
-0.038778227 -0.090163976 0.09465767 -0.05845501 -0.13602062 -0.12753321 0.27542403 -0.042369552
-0.056683186 -0.20883782 0.07107532 0.26142272 -0.21983665 -0.11631378 0.12894136 -0.20501676
0.29346845 0.20372136 0.021689875 0.13383298 0.035449915 -0.21382643 -0.25105822 0.112857535

linear2.weight f4 [3, 256]
00000000: 44e3 ff3c 027f 88bc fbc3 43bd 848d 29bd
00000010: 4653 663d 7af3 02bd fbfd 69bd b7d8 403d
00000020: 06a6 dcbb 6404 15bd 220c babc ca81 3e3d
00000030: 2b8f adbc 8161 3a3d f24a 63bc 768d 983a
00000040: d965 593c 56d1 03bd 4b2b d83c 88d5 ffbc
00000050: f9ca 33bd 04c9 953c 48fb 6abd a8c6 77bd
00000060: a76c 15bd b668 1dbc b805 283d 58df 4d3d
00000070: ef08 02bd 7876 7fbd 284c 6cbd bc01 de3c
00000080: 62d3 353c 8099 56bd 5d9c febc ff30 45bd
00000090: 3b35 fdbc 1fcf ac3c 0550 4bbd 80aa 54bb
000000a0: bc4e b6bb 5d4a 08bc e022 75bb 4944 d13c
000000b0: 40d9 4d3d ea2b a3bc cffa 99bb 0c21 80bb
000000c0: 7c7e 6dbd 3f1b 093c d403 84bd 05b9 26bd
000000d0: 081d 7abd 42a6 3dbc a3ac 3f3d 649d 74bd
000000e0: 74df 02bb bc2e 163d b11b 4cbd 782e b03c
000000f0: 19b1 3e3d 150a b53a 5739 5c3c cc54 113d
00000100: b857 4e3d aeb6 09bd 21f8 6b3c d211 00bc
00000110: 28fd 1b3d c854 1f3c c74a 85bd 5477 67bd
00000120: 62fb 6e3c 205a 4a3c 62c4 163d 2312 1d3d
00000130: b99c cabc b476 433d 5b77 153d b86f 9dbc
00000140: cc3a 47bc 6d00 3f3d 80bb 39bd 0f6f 593a
00000150: 0070 c138 a04b 0ebb ea97 373d f6e0 a4bc
00000160: 6c7c 173d 08bf b93c fa26 97bc 026f fcbc
00000170: 6568 37bd 382a 9b3c 9024 1dbd 9f9d b73a
00000180: 2ff5 1f3d 6f0d 81bd 0ccc 0d3d 70d4 9a3b
00000190: 7a54 0e3d 676c b93c a79b e63c 1fc5 80bd
000001a0: ca3f 0ebd 7b0c f83c cf13 35bc c5ac 2d3d
000001b0: a617 5a3d bc4d 53bb 9c67 06bd 7232 d23b
000001c0: 2047 17bc 8fa2 6bbd 719f 453d a2c9 a9bc
000001d0: 8014 273a 73df fa3c 808c 9e3c 277a 293d
000001e0: 9008 25bc 4162 29bd 80e2 97bc c3a3 963c
000001f0: 4426 b9bc 460d c43c 2ab9 00bd e243 5ebd
00000200: 0486 473d c5e4 b8bc a025 abbb 3469 92bc
00000210: 115b dbbc 0e00 023d 5c0e 063d 5e93 7cbc
00000220: 7bb8 3b3d e5d2 1fbd 6f8a 84bd 0bd6 1bbd
00000230: 3a03 343d 42d1 ecba 4079 dfbc 83e0 593d
00000240: fc2d f6bc 01e3 243d 70cb 033d 4f11 3dbc
00000250: 7819 81bc 7f41 2dbc c472 bfba 2e17 ec3c
00000260: 9c7e 0abd 21eb 02bc f93e a33c 531f 95bc
00000270: ddf2 82bc 3905 67bd 27ce bc3b c7f8 68bb
00000280: 7dbe 683c c785 0cbd 19a1 58bd 244c 9cbc
00000290: f33a 183d bbab 733b a107 48bd b64c 50bd
000002a0: f4c7 ebbc f267 7c3d 5c06 053d b704 003d
000002b0: acea 05bb 68fa fbbc 1307 823b 9f27 013c
000002c0: 8796 ad3c 5afa 03bb 81e8 643b 7688 563c
000002d0: a3d3 babc 4249 d23b 0edc 2f3d 353d b0b9
000002e0: 261c 29bd 691d 73bd 62eb 89bd e9db 51bd
000002f0: b185 3dbd 0581 3b3d 671e 5d3d ddda 0dbd
00000300: cd38 5bbd f43d 18bd 8884 13bc 8ea2 aabc
00000310: 166a ac3c d41c 5639 a950 8e3c cf5c 60bc
00000320: 5362 163d 02de 603d 4f6c a6bc e299 b93b
00000330: d280 863c 8198 673c d49e 8ebc 8b1f 9a3c
00000340: 379a 8a3b 1fea fe3c 12ab 8ebd 3460 583d
00000350: 8158 253d 19c1 2d3d 16b1 313d a4c7 30bd
00000360: f89e 9a3c 6359 693c 69fd 843c 7485 f9bc
00000370: 6cef 64bd 22d6 3dbd c016 75bd 0765 2b3d
00000380: 41f3 9fbc 80dd 5a3c 26df 6dbd 2fe9 043d
00000390: d12c 2bbd b81c 433d 9549 ac3c b39a 323d
000003a0: f3a3 e33c f827 cd3c ca36 8d3c 871b 093c
000003b0: 5066 84bb e2f7 e73c 21d4 82bd 64dd 213d
000003c0: c749 453d 9fca 5a3d 1a00 1c3c 3d04 7a3d
000003d0: 2813 373d 3fff fe3c 2796 64bc 627e b33c
000003e0: e12e 493d 78f0 cebb fe3b 07bd fb37 293d
000003f0: ea52 c73c 0697 483d cd89 a13c 6b75 54bd
0.031236298 -0.016662125 -0.047794323 -0.041394725 0.05623176 -0.03197048 -0.05712698 0.047081675
-0.0067336587 -0.03638114 -0.022710864 0.046510495 -0.021186432 0.045503143 -0.013872849 0.0011638838
0.013268911 -0.03218206 0.026387831 -0.03122975 -0.04389474 0.018284328 -0.057368547 -0.060492188
-0.036480572 -0.009607485 0.04102108 0.050261825 -0.0317468 -0.06236884 -0.057689816 0.027100436
0.011097761 -0.052392483 -0.03108042 -0.04814243 -0.030909171 0.021094857 -0.04963686 -0.0032450259
-0.005563585 -0.008318511 -0.003740482 0.025545256 0.050256014 -0.0199184 -0.004699088 -0.0039101895
-0.057981953 0.008368312 -0.06446043 -0.040703792 -0.061062843 -0.0115752835 0.0467955 -0.059720412
-0.0019969614 0.036665663 -0.049831096 0.021506533 0.046555612 0.0013812209 0.013441405 0.03548126
0.050376624 -0.033621483 0.01440242 -0.007816749 0.038083225 0.009724803 -0.06508403 -0.056510285
0.0145863015 0.012350589 0.03680838 0.038347375 -0.024732934 0.047720626 0.03649078 -0.01921831
-0.012160014 0.046631265 -0.04534483 0.0008294442 9.223819e-05 -0.0021712556 0.04482261 -0.020126801
0.036983892 0.022674099 -0.018451203 -0.030814651 -0.044777293 0.01894103 -0.038364947 0.0014008767
0.039052185 -0.063013904 0.034618422 0.0047250316 0.034748532 0.022634698 0.028150393 -0.06287598
-0.034728803 0.030279389 -0.011052086 0.042401094 0.05324521 -0.0032242378 -0.032813653 0.006414705
-0.009233266 -0.057528075 0.04824776 -0.020726029 0.0006373599 0.030624127 0.019354105 0.04137626
-0.010072842 -0.041353468 -0.01854062 0.018388635 -0.022601254 0.02393211 -0.031426586 -0.054263957
0.04871179 -0.022570023 -0.005222991 -0.01787243 -0.026776822 0.031738333 0.032728538 -0.015415994
0.04583023 -0.039019484 -0.064717166 -0.038045924 0.04394839 -0.0018067735 -0.027279496 0.053192627
-0.030051224 0.04025555 0.032176435 -0.011539771 -0.015759215 -0.0105746975 -0.0014606346 0.028819647
-0.03381215 -0.007990629 0.019927489 -0.018203413 -0.015984947 -0.056401465 0.00576188 -0.0035548673
0.014205572 -0.034307268 -0.05288801 -0.019079275 0.037165593 0.0037181217 -0.0488354 -0.050854407
-0.028781869 0.061622567 0.032476768 0.031254496 -0.0020434065 -0.030759051 0.0039681285 0.007882982
0.021189941 -0.0020138235 0.0034928622 0.013094058 -0.022805994 0.0064174244 0.04293447 -0.0003361494
-0.04128661 -0.05935422 -0.06734349 -0.051235113 -0.046270076 0.04577734 0.053984072 -0.034632552
-0.053520966 -0.037168458 -0.009003766 -0.020829465 0.02104668 0.0002041937 0.017372446 -0.013694002
0.036714863 0.054899223 -0.020315317 0.005664096 0.016418848 0.014135481 -0.01740972 0.018813869
0.0042298096 0.031117497 -0.06966223 0.05282612 0.040367607 0.04242048 0.043381773 -0.043159142
0.01887463 0.014242503 0.016234117 -0.030459143 -0.055892393 -0.04634679 -0.05983615 0.041844394
-0.019525172 0.013358474 -0.05807414 0.032448944 -0.041790787 0.04763481 0.02103118 0.043604564
0.027788138 0.025043473 0.01723804 0.008368379 -0.004040517 0.028316442 -0.06388117 0.039517775
0.048166063 0.05341589 0.009521509 0.0610392 0.044696003 0.03112757 -0.013951815 0.02191085
0.049116973 -0.006315287 -0.033016197 0.041313153 0.024331529 0.048972152 0.019719029 -0.05186979

linear2.bias f4 [3]
00000000: a928 6e3d 3324 0f3a 41ae 963c
0.058144245 0.0005460411 0.018393638
